models/gwak/embedder_S4_SimCLR_multiSignalAndBkg.pt (torch, 770721 bytes, 40 tensors)

weight f4 [128, 2]
-0.21424085 0.6838277 -0.5990949 -0.5099491 -0.32627028 0.2702478 -0.066987194 0.56200176
-0.17737767 0.18955389 -0.18793991 -0.14096566 -0.7761363 -0.5195632 -0.22567107 0.08002685
0.23758982 0.4466552 -0.34698123 -0.24605168 0.1918418 0.5859857 -0.27926254 0.5843685
-0.09058676 0.022546172 0.5443316 -0.735019 -0.5460712 -0.25051278 -0.37058565 0.5988228
-0.44862077 -0.29186794 -0.7530391 -0.8609169 -0.4754638 0.6336267 0.23835063 0.34843653
-0.011787565 -0.26528558 -0.001884291 -0.41592917 -0.48255736 -0.37183788 0.4334449 0.43750894
-0.2711697 0.045958415 0.29443678 0.5875729 0.21955499 0.097144336 0.4656456 -0.41101986
0.13773428 -0.63069147 -0.65447944 -0.48397973 0.28561652 0.34983513 -0.38181642 0.2505574
0.5705564 -0.279969 0.10952185 0.30777723 0.34700146 0.5832755 -0.6430874 -0.09554313
0.5266834 0.70413893 0.6445725 0.5920483 0.19654503 -0.6923449 0.07054997 -0.44621018
-0.77534914 0.5731732 0.4506878 -0.48326197 0.1762317 -0.3292476 -0.07563075 -0.3081509
0.32182303 -0.46397913 0.2934589 0.3182995 0.4993924 0.2623318 -0.66307044 -0.4127904
0.2552141 0.08454856 -0.5990647 -0.41442755 0.7267429 0.56430984 -0.45690975 -0.22694872
-0.5572439 0.10133089 -0.46905172 -0.49901062 0.028954105 0.010846647 -0.27724293 0.6360344
-0.4749716 0.6333654 0.5943599 -0.62435436 -0.40889096 -0.016972743 0.23673554 0.3306895
0.58111227 0.11819728 -0.61062366 0.500509 -0.5547369 -0.29125297 -0.13638693 -0.4209295
-0.20659539 -0.46143565 -0.16696589 0.19660184 -0.4142187 -0.014648448 0.5323609 -0.27291116
0.04300738 -0.036701627 0.13396285 0.43904674 0.5747507 0.5069125 0.58923316 -0.24347395
-0.7367399 -0.37941802 0.7262602 -0.02991069 -0.2420244 -0.40226534 -0.63960665 -0.5380351
-0.1422174 0.33255866 0.28779092 -0.5464204 0.5231482 -0.67340326 -0.15012598 -0.28612006
-0.082176164 -0.08236038 -0.79619294 -0.6487168 0.0016780312 -0.029928423 -0.3754714 0.43436885
-0.7758927 0.05443971 0.7127787 -0.23984689 0.69825786 0.22370492 -0.6290082 0.38392493
-0.035125554 -0.11987677 0.48093486 -0.4602843 0.07341877 -0.02478151 0.6462629 0.30551687
0.5826053 0.44228828 -0.15994737 -0.44469562 -0.5835524 0.3525555 0.49955136 0.46271983
-0.5821946 0.009167243 -0.6088537 -0.44218734 -0.48916304 0.37081686 -0.45111585 0.19814332
-0.08343358 0.56977844 -0.47666767 -0.49256116 -0.42264357 0.52900463 -0.22998726 0.5773091
0.45301715 0.2149476 0.013947174 -0.0993507 0.079236895 -0.12207358 -0.1518885 0.14107044
-0.44907108 -0.26648134 0.46739826 -0.49616307 -0.23094979 0.7427063 0.29049835 0.08935233
-0.55547994 0.31783703 -0.6864215 -0.4066421 -0.34592232 -0.12015363 -0.13570702 0.67235506
0.09350729 0.5055999 0.5116723 -0.46832773 0.3739599 -0.598163 -0.33904114 0.3249089
0.26400757 0.6599334 -0.3803663 0.1353537 0.35331395 -0.6520062 0.41916668 -0.5705084
0.04809456 0.016199091 -0.38425553 0.07733135 0.6205056 -0.24952355 -0.57387 -0.33427584
00000000: f461 5bbe 550f 2f3f 495e 19bf 068c 02bf
00000010: e60c a7be eb5d 8a3e 9530 89bd 59df 0f3f
00000020: 7ea2 35be 6a1a 423e 5273 40be 4d59 10be
00000030: deb0 46bf 1802 05bf 5116 67be 1ee5 a33d
00000040: bf4a 733e feaf e43e 86a7 b1be f9f4 7bbe
00000050: 2d72 443e 2903 163f 80fb 8ebe 2d99 153f
00000060: 8d85 b9bd c0b2 b83c 5159 0b3f 352a 3cbf
00000070: 52cb 0bbf 3643 80be 67bd bdbe 734c 193f
00000080: 9fb1 e5be b76f 95be 2cc7 40bf 0d65 5cbf
00000090: fe6f f3be 5c35 223f 3012 743e 4666 b23e
000000a0: a220 41bc 83d3 87be 50fa f6ba abf4 d4be
000000b0: c211 f7be 8961 bebe 7dec dd3e 2c01 e03e
000000c0: c1d6 8abe e43e 3c3d 6bc0 963e 2d6b 163f
000000d0: 06d3 603e 9cf3 c63d 1a69 ee3e 3271 d2be
000000e0: 370a 0d3e ff74 21bf f78b 27bf 31cc f7be
000000f0: 543c 923e 971d b33e 717d c3be 0f49 803e
00000100: fc0f 123f 1958 8fbe fe4c e03d fa94 9d3e
00000110: 2daa b13e 8b51 153f 60a1 24bf 1eac c3bd
00000120: b9d4 063f 7342 343f b402 253f 7a90 173f
00000130: 1a43 493e 843d 31bf 817c 903d a975 e4be
00000140: 487d 46bf 7bbb 123f 8dc0 e63e 1d6e f7be
00000150: 1576 343e 2493 a8be 4be4 9abd f4c5 9dbe
00000160: fdc5 a43e ac8e edbe 3f40 963e 27f8 a23e
00000170: 5cb0 ff3e 5b50 863e fcbe 29bf 4359 d3be
00000180: 6cab 823e cc27 ad3d 4e5c 19bf d92f d4be
00000190: d30b 3a3f 9c76 103f 13f0 e9be 3f65 68be
000001a0: 89a7 0ebf 9286 cf3d 8c27 f0be 527e ffbe
000001b0: 2931 ed3c 23b6 313c c9f2 8dbe 27d3 223f
000001c0: 7a2f f3be 3c24 223f f827 183f b0d5 1fbf
000001d0: 285a d1be 6c0a 8bbc cd6a 723e 2250 a93e
000001e0: c6c3 143f 6a11 f23d d551 1cbf 5c21 003f
000001f0: 3d03 0ebf 1c1f 95be 04a9 0bbe 1284 d7be
00000200: be8d 53be 4b41 ecbe 1bf9 2abe fe51 493e
00000210: 7914 d4be 0b00 70bc ce48 083f 03bb 8bbe
00000220: 8228 303d 7254 16bd 8f2d 093e bcca e03e
00000230: dd22 133f 05c5 013f fcd7 163f 3c51 79be
00000240: fc9a 3cbf 1443 c2be 30ec 393f 4307 f5bc
00000250: 3fd5 77be b9f5 cdbe 43bd 23bf abbc 09bf
00000260: 70a1 11be 2145 aa3e 5559 933e 35e2 0bbf
00000270: 0aed 053f 2864 2cbf a0ba 19be 547e 92be
00000280: fa4b a8bd 8fac a8bd 4dd3 4bbf 4e12 26bf
00000290: 62f1 db3a 742c f5bc ca3d c0be 9865 de3e
000002a0: e7a0 46bf 2cfc 5e3d aa78 363f 6c9a 75be
000002b0: 07c1 323f e712 653e ae06 21bf cf91 c43e
000002c0: d0df 0fbd f481 f5bd 183d f63e 62aa ebbe
000002d0: 955c 963d 9802 cbbc 7c71 253f b56c 9c3e
000002e0: 9f25 153f 9c73 e23e 3ec9 23be 25af e3be
000002f0: b163 15bf 2882 b43e 32c5 ff3e 9de9 ec3e
00000300: b50a 15bf 3432 163c d6dd 1bbf 6166 e2be
00000310: 9473 fabe b5db bd3e a8f8 e6be 15e6 4a3e
00000320: 3adf aabd 00dd 113f c90d f4be fa30 fcbe
00000330: bd64 d8be d96c 073f c881 6bbe 87ca 133f
00000340: ddf1 e73e 391b 5c3e b082 643c 6178 cbbd
00000350: f446 a23d b701 fabd a988 1bbe c574 103e
00000360: a5ec e5be 3e70 88be d34e ef3e 1609 febe
00000370: 1a7e 6cbe 0022 3e3f 33bc 943e 5bfe b63d
00000380: ef33 0ebf 89bb a23e 52b9 2fbf 6533 d0be
00000390: bb1c b1be 1b13 f6bd c8f6 0abe 761f 2c3f
000003a0: c080 bf3d ff6e 013f f5fc 023f a7c8 efbe
000003b0: ac77 bf3e 3621 19bf cd96 adbe 765a a63e
000003c0: 002c 873e 65f1 283f 5fbf c2be 299a 0a3e
000003d0: 91e5 b43e e1e9 26bf 049d d63e d70c 12bf
000003e0: cdfe 443d f5b3 843c 24bd c4be e65f 9e3d
000003f0: 74d9 1e3f 1a83 7fbe 25e9 12bf 3426 abbe

bias f4 [128]
-0.6427335 0.17148125 -0.31021392 -0.45249948 -0.41301382 0.38564676 0.38347277 0.26691055
0.1398755 -0.24880545 -0.30389008 0.1690838 0.566565 0.28022307 -0.3728238 -0.2628191
-0.66761607 0.2792219 -0.27719727 -0.73793656 0.8798049 -0.36033964 -0.14838098 0.25562885
0.018946677 -0.32474983 -0.56979924 0.486253 0.1506029 0.49655813 -0.22339383 0.058399588
-0.175522 -0.051645316 -0.22343819 0.22912945 0.19203146 0.11317059 -0.18797807 -0.5154359
0.3980571 -0.48274273 0.16625443 -0.22716597 -0.35326147 0.11567196 -0.3410971 0.16129395
0.034685247 -0.46809307 0.101423696 0.2504959 0.21882188 0.097511075 -0.5944894 -0.075454876
0.33821607 -0.21787451 0.22855256 0.38487312 -0.36559868 0.016157037 0.22933999 0.08624517
0.03679988 0.31440192 -0.6235111 0.11590794 0.33268377 0.9555331 0.39176396 0.12690525
0.38820258 -0.36119518 -0.6859963 -0.6136071 0.613831 0.3850238 -0.4089223 0.3389241
0.58312935 0.58593047 0.58965254 0.5674311 -0.18080427 -0.16432722 0.5939278 0.31972665
-0.5199517 0.5684215 0.35068294 0.4414346 -0.37514168 0.29479682 -0.24369285 0.52173
-0.088364266 0.32805905 0.11005599 0.32545027 -0.18125439 0.38444167 -0.36993974 0.023078647
-0.47337964 -0.6216116 -0.52205443 0.50307465 0.28583422 0.48953515 0.542866 -0.6150397
-0.44143513 -0.20497647 -0.39108872 0.45759684 -0.7510082 -0.2847663 -0.70638794 -0.37635824
0.5006893 0.5941903 0.5225743 0.5838011 0.7563563 -0.20034844 0.3605492 0.5727558
00000000: 2f8a 24bf c898 2f3e 5cd4 9ebe 03ae e7be
00000010: 8c76 d3be 7e73 c53e 8b56 c43e 80a8 883e
00000020: 863b 0f3e dbc6 7ebe 7b97 9bbe 4e24 2d3e
00000030: 670a 113f 6679 8f3e c3e2 bebe 3a90 86be
00000040: e3e8 2abf 2cf6 8e3e cdec 8dbe 69e9 3cbf
00000050: e53a 613f 707e b8be 2ff1 17be c9e1 823e
00000060: 1036 9b3c 9c45 a6be 5dde 11bf 27f6 f83e
00000070: a637 1a3e de3c fe3e 5ac1 64be 6834 6f3d
00000080: 0abc 33be 0a8a 53bd fbcc 64be e9a0 6a3e
00000090: e5a3 443e fbc5 e73d 537d 40be 9bf3 03bf
000000a0: 24ce cb3e 0e2a f7be 9a3e 2a3e 329e 68be
000000b0: b0de b4be 6ce5 ec3d 47a4 aebe 3e2a 253e
000000c0: 1e12 0e3d e5a9 efbe 3ab7 cf3d 0041 803e
000000d0: d812 603e e3b3 c73d 7530 18bf 1688 9abd
000000e0: a82a ad3e 7f1a 5fbe af09 6a3e 170e c53e
000000f0: c02f bbbe c35b 843c 1ad8 6a3e 4fa1 b03d
00000100: 79bb 163d 4af9 a03e 6c9e 1fbf 2461 ed3d
00000110: 8755 aa3e d19d 743f 4995 c83e 73f3 013e
00000120: 7dc2 c63e 93ee b8be 749d 2fbf 5b15 1dbf
00000130: 0724 1d3f d721 c53e 445e d1be 7687 ad3e
00000140: f747 153f 8aff 153f 78f3 163f 2a43 113f
00000150: c124 39be 6545 28be a70b 183f 36b3 a33e
00000160: 8e1b 05bf 1284 113f b78c b33e b703 e23e
00000170: 9212 c0be 9cef 963e 9e8a 79be 1990 053f
00000180: 53f8 b4bd 5bf7 a73e 0965 e13d 6ba1 a63e
00000190: c09a 39be 8ad5 c43e be68 bdbe 6e0f bd3c
000001a0: d15e f2be f021 1fbf 5ca5 05bf 80c9 003f
000001b0: dd58 923e 5aa4 fa3e 44f9 0a3f 3e73 1dbf
000001c0: c903 e2be 5ae5 51be c83c c8be 224a ea3e
000001d0: 1342 40bf e3cc 91be d7d5 34bf 07b2 c0be
000001e0: 2d2d 003f db1c 183f 6ec7 053f fd73 153f
000001f0: 91a0 413f 2428 4dbe e899 b83e 20a0 123f

D f4 [128]
0.0765724 0.560066 1.2966682 0.4790558 0.34908143 -1.4237146 0.32722685 0.45675576
1.3996798 3.892745 0.915554 -1.5810878 -0.7523782 0.5086368 1.114178 -0.46346593
-0.6708209 -0.14811659 0.24388653 -2.1975632 1.3833255 -0.30500254 1.52673 -0.67227703
1.5352737 -0.9805362 0.57672065 0.99093527 -0.5336429 0.035418227 2.1766756 1.5856297
-0.03762355 1.0800372 -0.8683752 1.4568564 0.09931789 -0.1356279 0.89523005 -0.6533544
-0.7386197 0.15314016 0.5129286 1.8526515 1.4182369 -0.490501 0.74161416 -1.3329253
2.1058662 1.0869521 -0.33384356 0.32137486 1.1596214 0.33095163 -0.25663307 -0.008992735
0.2458641 -0.2523345 0.4106312 -0.70086133 0.017722307 -0.16667026 1.2945815 -0.31201777
-1.0364159 0.08081298 1.7547609 -0.9461976 3.1269495 -0.40740734 -0.42730558 1.4378972
-0.02723945 -0.5834081 0.89939505 1.2053862 0.19966261 1.4563245 -0.36279622 1.3267049
0.4937907 -1.55678 -0.5791005 0.51490647 0.46546012 0.20893425 0.28667408 -0.20214489
-1.344897 0.3783315 -1.1072497 -0.13931577 0.220826 -1.0016422 1.4462732 -3.1019013
-0.4838398 -0.09343799 -0.11765002 -1.6306405 -0.065153636 1.2177277 1.4877189 -1.4988014
-0.11222734 0.62090725 0.30199945 -0.7062495 -1.2559326 1.2539103 -0.41447464 0.58041996
0.30383068 0.19210997 -1.2625469 -0.5815505 -0.15482062 -0.68806624 -1.0494976 0.60493106
-0.120128766 0.96806306 -1.751031 -2.3603776 -0.0056986865 -1.6553823 1.2341925 -1.1257445
00000000: fed1 9c3d 7c60 0f3f 39f9 a53f cd46 f53e
00000010: cdba b23e 483c b6bf 478a a73e e4db e93e
00000020: b528 b33f bc22 7940 bf61 6a3f 1661 cabf
00000030: dc9b 40bf 0536 023f 629d 8e3f 684b edbe
00000040: ebba 2bbf e0ab 17be 64bd 793e e0a4 0cc0
00000050: cf10 b13f 4b29 9cbe e36b c33f 591a 2cbf
00000060: d983 c43f 6c04 7bbf f7a3 133f efad 7d3f
00000070: d29c 08bf b412 113d a74e 0b40 eaf5 ca3f
00000080: 271b 1abd a93e 8a3f d64d 5ebf 457a ba3f
00000090: 2e67 cb3d 0ae2 0abe cc2d 653f 3c42 27bf
000000a0: 2e16 3dbf c6d0 1c3e 4a4f 033f af23 ed3f
000000b0: c988 b53f f222 fbbe 6dda 3d3f 4c9d aabf
000000c0: 83c6 0640 3f21 8b3f 8bed aabe 3f8b a43e
000000d0: 796e 943f 7e72 a93e 6965 83be 4456 13bc
000000e0: ccc3 7b3e fd31 81be 413e d23e a66b 33bf
000000f0: 5f2e 913c 9cab 2abe d9b4 a53f cbc0 9fbe
00000100: 47a9 84bf 4781 a53d 019c e03f 023a 72bf
00000110: f11f 4840 b297 d0be ccc7 dabe 040d b83f
00000120: 4425 dfbc 3c5a 15bf c13e 663f 184a 9a3f
00000130: 5b74 4c3e d768 ba3f 6dc0 b9be 77d1 a93f
00000140: 22d2 fc3e 9144 c7bf ee3f 14bf e9d0 033f
00000150: ca50 ee3e dcf2 553e f2c6 923e 12ff 4ebe
00000160: 9625 acbf abb4 c13e 5cba 8dbf cba8 0ebe
00000170: 3620 623e d035 80bf 7b1f b93f 8d85 46c0
00000180: dab9 f7be 6b5c bfbd 7ef2 f0bd d4b8 d0bf
00000190: 456f 85bd 80de 9b3f 936d be3f b9d8 bfbf
000001a0: 73d7 e5bd c7f3 1e3f ac9f 9a3e c4cc 34bf
000001b0: 66c2 a0bf 2280 a03f 0536 d4be 6796 143f
000001c0: b28f 9b3e 7ab8 443e 239b a1bf 7ee0 14bf
000001d0: 4c89 1ebe 1c25 30bf f055 86bf c3dc 1a3f
000001e0: 1206 f6bd fbd2 773f c921 e0bf 6d10 17c0
000001f0: 0cbc babb 91e3 d3bf 05fa 9d3f 6518 90bf

C f4 [128, 16, 2]
0.35248 -0.6738001 -0.014265586 -0.23358947 0.0599018 1.0319852 -0.39842907 -0.43545374
-0.4620641 0.7552922 -1.362805 1.1323669 -0.6711732 1.803608 0.25802276 1.7710894
-0.61741763 2.0039248 -0.068296105 1.0427744 -0.042086024 0.67934096 1.4572076 -0.1938516
-0.42053354 -0.15930183 0.38911423 -0.47062322 0.7143784 -0.19246233 0.42544565 0.31666684
0.5038844 0.6525789 -1.2937757 -1.247872 -0.40835932 0.62222946 -1.4387319 0.7092834
-0.075924344 1.2807268 0.6705187 0.44490924 -0.3578922 -0.6677915 0.94897866 0.12276793
0.7605461 0.48712584 -0.61541325 -0.36923394 -0.0119919805 -0.93515205 0.87091726 -0.16844976
-0.6878586 0.57229346 -0.73821527 -0.38240263 1.2013043 -1.6757458 0.2643879 -0.17051205
0.3070105 0.87307006 1.2356975 -1.2483366 -0.59847635 -0.96683884 0.37282473 0.42256156
0.0654957 0.09784783 -0.22396664 1.1184536 -0.13149962 -0.9625275 -0.8399643 -0.26450086
0.67037666 -0.116219215 -0.77801937 0.4144928 -0.480459 -1.1363504 1.2232801 0.2517116
-1.6075002 0.2697123 0.30630535 -0.35855213 0.22581276 -0.27189776 1.4740165 -0.08577269
-0.022221569 0.23961356 0.28601062 -0.0078424495 0.06779628 -0.61473984 1.5439789 -1.0169424
-1.1457502 -0.66428596 -1.2892603 0.41702884 -0.0040054806 0.7898066 0.8586023 -0.21178612
-1.3511691 0.41930455 0.6378678 0.8252773 -0.46955544 0.74137074 -0.7013973 0.35741162
-0.79002136 -1.2107373 0.095467426 -0.19340964 -0.57750213 1.0304847 0.14431974 -0.14073415
0.15939546 0.350486 1.0690851 0.45070356 1.1894188 0.55925626 -1.3072356 -0.18707782
-0.024918735 0.8783944 0.11946188 0.062352877 0.470083 -1.1225873 -0.4540921 0.05361165
0.099824876 -0.26292887 -0.755508 0.1271254 0.6800388 1.0862957 -0.80589586 -0.61213726
-0.19320373 -0.33768296 0.8594898 0.25174323 0.72585374 0.9566242 0.3955553 0.72521657
-0.9806444 -0.5175872 -0.015515428 -0.18071465 -0.5021469 0.980152 -2.055131 -0.077541746
-0.814682 -0.23399019 1.4786793 0.32575276 -0.73305357 1.417035 -1.3634927 -0.44549182
-0.63273436 -1.3228794 -0.8508632 -0.38174772 -1.7423774 -0.6291427 0.4504313 -0.4671326
0.33040625 0.8190758 -0.008197749 0.99221843 -1.5972738 0.0014350348 -1.0766417 0.4544819
-0.6639544 0.29229718 -0.56953764 -0.22503377 -0.7565312 -0.5710735 0.15717384 1.3489738
0.86041945 -0.67103803 -0.12565133 -1.1514982 -0.9540508 0.3888218 -0.5349326 -0.66314435
-0.77946377 -0.15560652 0.3854982 1.2241242 0.19952433 0.3670872 -0.79083204 -0.29641256
-0.13033932 0.66777605 -0.5990304 0.24538529 -0.55505294 -0.040184192 -0.6168833 0.07657198
1.9031615 -0.8958936 -1.030182 -0.23077323 0.5725806 1.182337 0.27857736 -0.4678995
-0.0015777268 0.11731648 -0.048512775 -0.017668316 -0.48238897 0.11196748 0.8215647 0.3245301
-0.6422207 0.39798555 -0.09479914 1.9478234 -1.0100471 0.94123125 -0.37057987 0.2217237
-0.098860376 0.24121734 0.35096633 -0.3465511 -0.7414898 -0.6899677 1.27941 -0.14061779
00000000: 4278 b43e 2a7e 2cbf 34ba 69bc 1432 6fbe
00000010: 975b 753d 1718 843f e5fe cbbe cbf3 debe
00000020: aa93 ecbe d45a 413f 6570 aebf 66f1 903f
00000030: 02d2 2bbf a0dc e63f 8f1b 843e 0fb3 e23f
00000040: 150f 1ebf 4e40 0040 d4de 8bbd a279 853f
00000050: 6562 2cbd 4ae9 2d3f c785 ba3f 0981 46be
00000060: 2c50 d7be 0520 23be fb39 c73e 87f5 f0be
00000070: 81e1 363f d814 45be 03d4 d93e 2822 a23e
00000080: 91fe 003f 690f 273f 719a a5bf 45ba 9fbf
00000090: 7914 d1be 6e4a 1f3f 5e28 b8bf 9993 353f
000000a0: 397e 9bbd dbee a33f 1da7 2b3f 25cb e33e
000000b0: a53d b7be 62f4 2abf 44f0 723f c16d fb3d
000000c0: 26b3 423f 8f68 f93e b98b 1dbf 3b0c bdbe
000000d0: 037a 44bc 2066 6fbf 6ff4 5e3f 187e 2cbe
000000e0: 8017 30bf d381 123f adfb 3cbf 47ca c3be
000000f0: 57c4 993f d77e d6bf da5d 873e b69a 2ebe
00000100: 7b30 9d3e 8581 5f3f 562b 9e3f 7ec9 9fbf
00000110: bf35 19bf c082 77bf e2e2 be3e fd59 d83e
00000120: 9c22 863d 7164 c83d 8357 65be 7d29 8f3f
00000130: d6a7 06be 3468 76bf e607 57bf a86c 87be
00000140: ce9d 2b3f 5704 eebd 472c 47bf 6638 d43e
00000150: b9fe f5be ee73 91bf 7194 9c3f 58e0 803e
00000160: 91c2 cdbf bb17 8a3e 0ed4 9c3e 2594 b7be
00000170: 763b 673e 2f36 8bbe 93ac bc3f 98a9 afbd
00000180: 020a b6bc 425d 753e fc6f 923e 9e7d 00bc
00000190: c7d8 8a3d 975f 1dbf 1aa1 c53f 2b2b 82bf
000001a0: f1a7 92bf a50e 2abf 7b06 a5bf ce84 d53e
000001b0: 6840 83bb c430 4a3f 5ccd 5b3f 76de 58be
000001c0: 1cf3 acbf 16af d63e 4e4b 233f 6045 533f
000001d0: 9269 f0be 79ca 3d3f c68e 33bf a8fe b63e
000001e0: d73e 4abf 71f9 9abf 6d84 c33d 2d0d 46be
000001f0: 2ed7 13bf ece6 833f 8ec8 133e 9d1c 10be
00000200: 9038 233e e772 b33e c8d7 883f 9ec2 e63e
00000210: e03e 983f 6b2b 0f3f 7f53 a7bf 5491 3fbe
00000220: 6022 ccbc 75de 603f 6ea8 f43d bb65 7f3d
00000230: b8ae f03e f1b0 8fbf c27e e8be e497 5b3d
00000240: fc70 cc3d 9d9e 86be f968 41bf 292d 023e
00000250: 0617 2e3f bd0b 8b3f 314f 4ebf 07b5 1cbf
00000260: 33d7 45be c8e4 acbe 8607 5c3f 7de4 803e
00000270: 8dd1 393f 53e5 743f 3986 ca3e cba7 393f
00000280: 830b 7bbf 9880 04bf 6c34 7ebc 430d 39be
00000290: b38c 00bf 3eeb 7a3f 4487 03c0 35ce 9ebd
000002a0: 008f 50bf 209b 6fbe 5d45 bd3f 11c9 a63e
000002b0: 66a9 3bbf 6761 b53f ee86 aebf 8117 e4be
000002c0: e1fa 21bf 1d54 a9bf 2cd2 59bf 7074 c3be
000002d0: 3906 dfbf 7f0f 21bf ee9e e63e 012c efbe
000002e0: 022b a93e f4ae 513f da4f 06bc 0702 7e3f
000002f0: 7873 ccbf c717 bc3a 65cf 89bf dab1 e83e
00000300: eaf8 29bf faa7 953e 38cd 11bf 416f 66be
00000310: 07ac 41bf df31 12bf 2ef2 203e 2cab ac3f
00000320: 7344 5c3f 26c9 2bbf beaa 00be 4b64 93bf
00000330: ac3c 74bf a713 c73e 58f1 08bf d4c3 29bf
00000340: f08a 47bf 5157 1fbe 0560 c53e 1ab0 9c3f
00000350: 1b50 4c3e daf2 bb3e f873 4abf 63c3 97be
00000360: ac77 05be 5ff3 2a3f 0e5a 19bf 4846 7b3e
00000370: f317 0ebf 2e98 24bd 10ec 1dbf c5d1 9c3d
00000380: cc9a f33f 4859 65bf 01dd 83bf d14f 6cbe
00000390: a494 123f d256 973f b1a1 8e3e 8690 efbe
000003a0: bacb ceba 9f43 f03d 55b5 46bd 25bd 90bc
000003b0: b0fb f6be 354f e53d 1052 523f cf28 a63e
000003c0: 9368 24bf c3c4 cb3e 0d26 c2bd 4752 f93f
000003d0: 3949 81bf 88f4 703f a5bc bdbe 8a0b 633e
000003e0: 4f77 cabd ae01 773e dcb1 b33e 256f b1be
000003f0: 47d2 3dbf b9a1 30bf b5c3 a33f 1cfe 0fbe

log_dt f4 [128]
-5.187525 -5.279274 -3.8450687 -3.6336727 -5.6747637 -4.367521 -3.2005663 -4.709025
-3.7981722 -5.099615 -3.764632 -6.2069573 -5.859155 -5.701828 -2.470206 -5.1602955
-4.4932146 -5.628824 -2.1950982 -2.395905 -6.4158387 -6.3448706 -6.229688 -4.52188
-5.078221 -6.0928755 -5.537929 -4.077463 -5.736391 -3.9453497 -5.0563807 -5.6392446
-4.1580963 -2.6697867 -6.2349477 -4.4484663 -5.4085712 -2.2854204 -6.644603 -6.8389263
-2.2843301 -5.9360576 -3.924793 -4.6722064 -5.0567694 -5.060833 -3.086066 -4.362461
-6.7425847 -5.9717026 -5.315284 -3.3134372 -6.0008845 -2.4007406 -5.098333 -5.0102596
-2.6646552 -3.349828 -2.5866897 -3.157689 -5.2677245 -6.0448966 -4.6673093 -2.6298354
-5.331628 -6.792856 -3.5390608 -2.3278356 -5.2267194 -6.320995 -6.542342 -3.986579
-4.664066 -5.7581286 -4.1353445 -3.683347 -2.7493684 -2.8467553 -4.821588 -6.466201
-6.787476 -2.4314506 -3.7019675 -3.6084185 -6.4749503 -2.4402542 -2.3913279 -2.3998182
-6.5047956 -5.388945 -6.1346164 -2.35232 -5.4751573 -5.5942416 -3.3627298 -5.648495
-5.6009374 -4.62311 -4.69952 -6.289906 -2.6884177 -5.5562243 -3.7249718 -2.4935646
-3.406653 -4.274597 -2.6522646 -4.216525 -5.621028 -2.3915877 -3.8921049 -6.8051972
-5.0934315 -6.031106 -2.558233 -4.875945 -6.7437286 -4.687345 -3.034541 -3.905677
-3.7388961 -4.274411 -3.6404147 -5.0986586 -5.512361 -6.758744 -6.27348 -3.435948
00000000: 3400 a6c0 d0ef a8c0 9b15 76c0 188e 68c0
00000010: aa97 b5c0 bbc2 8bc0 14d6 4cc0 55b0 96c0
00000020: 4115 73c0 0c30 a3c0 bbef 70c0 659f c6c0
00000030: 337e bbc0 6075 b6c0 db17 1ec0 2421 a5c0
00000040: 6ac8 8fc0 541f b4c0 7d7c 0cc0 8256 19c0
00000050: 8d4e cdc0 2e09 cbc0 9b59 c7c0 3eb3 90c0
00000060: c980 a2c0 d6f8 c2c0 b736 b1c0 947a 82c0
00000070: 8490 b7c0 9c80 7cc0 dfcd a1c0 b174 b4c0
00000080: 200f 85c0 c9dd 2ac0 b184 c7c0 d659 8ec0
00000090: 0413 adc0 5444 12c0 96a0 d4c0 7cd8 dac0
000000a0: 7732 12c0 2ff4 bdc0 cf2f 7bc0 b782 95c0
000000b0: 0ed1 a1c0 58f2 a1c0 1b82 45c0 4899 8bc0
000000c0: 41c3 d7c0 3018 bfc0 ce16 aac0 5b0f 54c0
000000d0: 3f07 c0c0 bca5 19c0 8b25 a3c0 0c54 a0c0
000000e0: b689 2ac0 9563 56c0 538c 25c0 9417 4ac0
000000f0: 3391 a8c0 cb6f c1c0 995a 95c0 394f 28c0
00000100: b29c aac0 145f d9c0 f97f 62c0 42fb 14c0
00000110: 4941 a7c0 9745 cac0 de5a d1c0 1c24 7fc0
00000120: 0740 95c0 9742 b8c0 be54 84c0 f5bb 6bc0
00000130: a7f5 2fc0 3d31 36c0 734a 9ac0 1eeb cec0
00000140: 0133 d9c0 e39c 1bc0 09ed 6cc0 54f0 66c0
00000150: cb32 cfc0 202d 1cc0 840b 19c0 9f96 19c0
00000160: 4927 d0c0 3d72 acc0 c74e c4c0 698c 16c0
00000170: 7d34 afc0 0704 b3c0 f736 57c0 79c0 b4c0
00000180: e13a b3c0 84f0 93c0 7862 96c0 e946 c9c0
00000190: 090f 2cc0 97cc b1c0 f065 6ec0 9096 1fc0
000001a0: 9a06 5ac0 80c9 88c0 b4be 29c0 c6ed 86c0
000001b0: 76df b3c0 c60f 19c0 3f18 79c0 2dc4 d9c0
000001c0: 64fd a2c0 d2fe c0c0 17ba 23c0 be07 9cc0
000001d0: a0cc d7c0 bbfe 95c0 eb35 42c0 9df6 79c0
000001e0: 134a 6fc0 fac7 88c0 8efc 68c0 3628 a3c0
000001f0: 4365 b0c0 a147 d8c0 59c0 c8c0 92e6 5bc0

log_A_real f4 [128, 16]
-0.6478938 -0.70592624 -0.8672208 -1.0753375 -0.5599655 -0.7034098 -0.67084426 -0.65725225
-0.6692245 -0.7102135 -0.6659189 -0.6730697 -0.82233196 -0.8104401 -0.7363355 -0.7441072
-0.55552137 -0.5267986 -0.40709984 -0.66118866 -0.80675125 -0.7437409 -0.80212545 -0.7617538
-0.55435574 -0.52816254 -0.75455284 -0.6156704 -0.5864488 -0.71889174 -0.5607491 -0.6689632
-0.610072 -0.981893 -0.7477181 -0.78324735 -0.6960274 -0.7453979 -0.69277346 -0.9125027
-0.82298857 -0.93620706 -0.97837645 -0.8315019 -0.7116609 -0.6773843 -0.69915754 -0.717661
-0.6546603 -0.40829888 -0.7764967 -0.78636384 -0.85366315 -0.7942122 -0.61987674 -0.77654225
-0.5647416 -0.593954 -0.54704964 -0.5885307 -0.4662649 -0.60027987 -0.5324864 -0.56286186
-0.5093254 -0.8626705 -0.7601075 -0.27317035 -0.8335615 -0.6297011 -1.1183757 -0.38456833
-0.66350114 -1.109574 -1.6324395 -1.0142992 -1.0295209 -1.0565988 -0.88787264 -0.6783791
-0.73593014 -0.5977974 -0.5376631 -0.8037995 -0.9313344 -0.768365 -0.76359344 -0.8046953
-0.8422759 -0.7221316 -0.79466295 -0.61933607 -0.696758 -0.5858481 -0.74526155 -0.67965513
-0.602627 -0.54107225 -0.9344773 -0.9480411 -0.84797233 -0.73661333 -0.70397866 -0.5170919
-0.60574096 -0.5559523 -0.56978375 -0.62889063 -0.44026768 -0.41898608 -0.6373027 -0.59531385
-0.46788496 -0.44004345 -0.8390766 -0.71473217 -0.72795343 -0.5985317 -0.5051442 -0.76638895
-0.64954495 -0.7453402 -0.55808455 -0.5728042 -0.5642905 -0.6023494 -0.5888695 -0.7360386
-0.75462043 -0.8921059 -0.39551648 -0.54295546 -0.6731601 -0.62831014 -0.546537 -0.48192602
-0.547365 -0.59408593 -0.7037763 -0.61185676 -0.4667902 -0.6540926 -0.69301295 -0.55857766
-0.6989826 -0.876824 -0.72875094 -0.78724235 -0.77783304 -0.75165266 -0.7687433 -0.6382069
-0.69749355 -0.83379865 -0.6344822 -0.7020515 -0.6810229 -0.7432454 -0.7196521 -0.60259724
-0.6043211 -0.41926616 -1.0369762 -0.708716 -0.85017896 -0.7072734 -0.66899985 -0.590379
-0.59953755 -0.45726648 -0.5809586 -0.48430684 -0.5413105 -0.61079556 -0.6679751 -0.64054435
-0.690875 -0.84495914 -0.85607654 -0.9526904 -0.99729186 -0.69103914 -0.82784534 -0.9285025
-0.54361624 -0.57347023 -1.0298558 -0.7769289 -0.694522 -0.60743386 -0.8860016 -1.12025
-0.6671475 -0.53854203 -0.84400326 -0.7680852 -1.3350102 -1.3762889 -1.618586 -1.5491925
-1.5940994 -1.200693 -1.7997619 -2.0218868 -2.099246 -2.7031326 -2.7181225 -2.943851
-0.7192217 -0.6664248 -0.9389001 -0.7321866 -0.5158896 -0.9749601 -0.92894655 -0.7271053
-0.7331166 -0.6767826 -0.45198992 -0.45594049 -0.4740529 -0.53569424 -0.5760125 -0.42595473
-0.52846164 -1.0749309 -0.59413725 -0.5299477 -0.5910529 -0.5510644 -0.64033157 -0.37453306
-0.49083003 -0.53285235 -0.2918458 -0.4899819 -0.48068318 -0.7447713 -0.55216265 -0.58328676
-0.5714704 -0.5866923 -0.9757284 -0.84593755 -0.71898234 -0.6923677 -0.92399234 -0.61392856
-0.47926262 -0.59269947 -0.57530844 -0.65688634 -0.59160256 -0.639935 -0.69285446 -0.5718553
00000000: 5edc 25bf 95b7 34bf 2f02 5ebf a9a4 89bf
00000010: e659 0fbf aa12 34bf 73bc 2bbf af41 28bf
00000020: 4c52 2bbf 8dd0 35bf a979 2abf 4c4e 2cbf
00000030: 5984 52bf 0179 4fbf 7c80 3cbf cf7d 3ebf
00000040: a636 0ebf 46dc 06bf 646f d0be a943 29bf
00000050: 4087 4ebf ce65 3ebf 1858 4dbf 4c02 43bf
00000060: 42ea 0dbf a935 07bf 602a 41bf 939c 1dbf
00000070: 8221 16bf 4a09 38bf 418d 0fbf 2c41 2bbf
00000080: ae2d 1cbf 575d 7bbf 746a 3fbf e682 48bf
00000090: da2e 32bf 66d2 3ebf 9a59 31bf c799 69bf
000000a0: 61af 52bf 44ab 6fbf e176 7abf 4fdd 54bf
000000b0: 692f 36bf 0f69 2dbf fdfb 32bf a2b8 37bf
000000c0: d197 27bf 8d0c d1be 7dc8 46bf 244f 49bf
000000d0: ab89 5abf 7e51 4bbf 3eb0 1ebf 79cb 46bf
000000e0: e892 10bf 5f0d 18bf 720b 0cbf f3a9 16bf
000000f0: 46ba eebe f1ab 19bf 0751 08bf b717 10bf
00000100: 2663 02bf f9d7 5cbf 6896 42bf fcdc 8bbe
00000110: 4964 55bf 1734 21bf ef26 8fbf 24e6 c4be
00000120: 36db 29bf 8506 8ebf c7f3 d0bf 8ed4 81bf
00000130: 57c7 83bf a13e 87bf 9f4b 63bf 41aa 2dbf
00000140: eb65 3cbf 4009 19bf 4aa4 09bf cec5 4dbf
00000150: ee6b 6ebf 92b3 44bf dc7a 43bf 8300 4ebf
00000160: 659f 57bf 9edd 38bf 086f 4bbf cf8c 1ebf
00000170: bb5e 32bf 24fa 15bf 76c9 3ebf e1fd 2dbf
00000180: c345 1abf b683 0abf e839 6fbf d2b2 72bf
00000190: b714 59bf b192 3cbf f237 34bf 2260 04bf
000001a0: d711 1bbf e452 0ebf 59dd 11bf fafe 20bf
000001b0: c46a e1be 5885 d6be 4526 23bf 7d66 18bf
000001c0: 9e8e efbe 604d e1be b9cd 56bf b0f8 36bf
000001d0: 285b 3abf 6039 19bf 2151 01bf 1132 44bf
000001e0: 9448 26bf 9ece 3ebf a1de 0ebf 4ca3 12bf
000001f0: 5875 10bf 9233 1abf 27c0 16bf 076d 3cbf
00000200: ce2e 41bf 0d61 64bf 2381 cabe 21ff 0abf
00000210: 3854 2cbf efd8 20bf d9e9 0bbf 02bf f6be
00000220: 1d20 0cbf 0416 18bf af2a 34bf a5a2 1cbf
00000230: 20ff eebe 9d72 27bf 4c69 31bf f2fe 0ebf
00000240: 86f0 32bf 8a77 60bf 6c8f 3abf b788 49bf
00000250: 1120 47bf 4f6c 40bf 5ccc 44bf 8761 23bf
00000260: f08e 32bf d473 55bf 6d6d 22bf a6b9 33bf
00000270: 8457 2ebf 5545 3ebf 1f3b 38bf d043 1abf
00000280: cab4 1abf 0eaa d6be a3bb 84bf 696e 35bf
00000290: 54a5 59bf df0f 35bf 9343 2bbf 1423 17bf
000002a0: 4b7b 19bf d51e eabe b4b9 14bf 11f7 f7be
000002b0: 5393 0abf 195d 1cbf 6b00 2bbf b7fa 23bf
000002c0: 2fdd 30bf 3e4f 58bf d527 5bbf 85e3 73bf
000002d0: 854e 7fbf f1e7 30bf aced 53bf 57b2 6dbf
000002e0: 6f2a 0bbf f2ce 12bf 51d2 83bf d0e4 46bf
000002f0: 32cc 31bf c980 1bbf 00d1 62bf 5a64 8fbf
00000300: 2eca 2abf e4dd 09bf 9910 58bf 3ba1 44bf
00000310: 9de1 aabf 3c2a b0bf d32d cfbf f14b c6bf
00000320: 730b ccbf 4fb0 99bf 995e e6bf 9866 01c0
00000330: 0c5a 06c0 2000 2dc0 b8f5 2dc0 0e68 3cc0
00000340: ea1e 38bf d19a 2abf c25b 70bf 9570 3bbf
00000350: 5711 04bf fc96 79bf 71cf 6dbf 9323 3abf
00000360: 88ad 3bbf a041 2dbf 396b e7be 0871 e9be
00000370: 10b7 f2be 4223 09bf 8e75 13bf bd16 dabe
00000380: 4349 07bf 5697 89bf 6119 18bf a7aa 07bf
00000390: 3e4f 17bf 8e12 0dbf c5ec 23bf ccc2 bfbe
000003a0: 134e fbbe 0369 08bf d06c 95be e8de fabe
000003b0: 1b1c f6be 55a9 3ebf 885a 0dbf 4852 15bf
000003c0: e24b 12bf 7731 16bf 56c9 79bf 5d8f 58bf
000003d0: 3a0f 38bf 023f 31bf c38a 6cbf 6c2a 1dbf
000003e0: e961 f5be 27bb 17bf 6a47 13bf b429 28bf
000003f0: 4473 17bf c8d2 23bf e95e 31bf 1c65 12bf

A_imag f4 [128, 16]
-0.02702277 3.1775131 6.1811023 8.90743 12.607474 15.171675 18.48182 21.36697
24.401684 27.324657 30.664722 33.751934 36.69768 39.97885 42.906418 45.893448
0.14313139 3.081155 5.7503552 9.480895 12.186162 15.390091 18.46474 21.185411
24.481201 27.589514 30.60236 33.8477 36.745255 39.89491 42.940258 46.03459
0.12288561 3.0494328 6.1127257 9.207838 12.216533 15.360496 18.397068 21.417603
24.417284 27.571703 30.666042 33.730293 36.87201 39.85975 42.933025 46.09919
-0.006792701 3.2016425 6.3379607 9.445965 12.238185 15.32226 18.342154 21.323635
24.420753 27.554783 30.64149 33.73149 36.78149 39.942078 42.901062 46.014187
0.16102786 2.991337 5.9991636 9.128848 12.348481 15.124375 18.489782 21.303106
24.098104 28.088776 30.574543 33.555744 36.801113 39.75871 43.159138 46.075375
-0.063891396 3.1772952 6.109736 9.119913 12.137383 15.217393 18.47451 21.420525
24.612566 27.557798 30.690443 33.707657 36.70741 39.787464 42.91028 46.058903
-0.066804014 2.784206 6.152035 9.092986 12.460502 15.1404295 18.351126 21.46222
24.619934 27.605885 30.675016 33.6908 36.689644 39.93387 42.87608 45.908573
-0.2549242 3.1222508 5.846897 9.289402 12.410234 15.336757 18.408789 21.539465
24.617472 27.597403 30.79023 33.710575 36.792854 39.87073 43.012627 46.06111
-0.13152477 2.8363929 6.0201783 8.971542 12.226005 15.397002 18.630583 21.294523
24.39196 27.626724 30.754889 33.790394 36.844048 39.864178 42.96333 46.024868
-0.024456905 3.1854918 6.0908194 9.384798 12.245641 15.256421 18.322712 21.425053
24.565374 27.584114 30.567583 33.765175 36.810387 39.959225 42.877956 46.072506
-0.06527947 2.8010871 6.17518 9.322164 12.374343 15.062518 18.499147 21.37938
24.50345 27.694004 30.66394 33.58001 36.880333 39.92441 43.016216 45.98329
0.019396314 2.7404685 5.680913 9.375143 12.407915 15.299065 18.545635 21.550713
24.281675 27.314291 30.739641 34.10196 36.682617 39.761753 43.06812 45.923786
0.006589361 2.9108276 6.1701984 9.683123 11.953293 14.955167 18.152924 21.057743
24.562977 28.156204 31.070206 33.754276 36.39573 39.874725 43.110817 46.36105
0.042268787 3.126288 6.1199036 8.995893 12.374411 15.1255665 18.017107 21.699024
24.487103 27.298832 30.855574 33.414764 36.713947 40.043026 42.77291 46.00257
-0.15795082 2.6360419 6.0605617 9.33825 12.382643 15.202758 18.366453 21.381613
24.436152 27.588106 30.760784 33.781742 36.950325 39.81795 43.026203 46.118958
-0.17724217 3.1551669 6.257023 9.02264 12.29615 15.279517 18.422369 21.475035
24.817509 27.437796 30.655245 33.77233 36.77426 39.77611 42.976616 45.956455
00000000: db5e ddbc 605c 4b40 97cb c540 d584 0e41
00000010: 37b8 4941 2ebf 7241 c4da 9341 8eef aa41
00000020: a636 c341 e698 da41 5a51 f541 fb01 0742
00000030: 6dca 1242 58ea 1f42 2ca0 2b42 e492 3742
00000040: 0991 123e a531 4540 e902 b840 bfb1 1741
00000050: 85fa 4241 d03d 7641 cab7 9341 b97b a941
00000060: 80d9 c341 53b7 dc41 a2d1 f441 0b64 0742
00000070: 24fb 1242 6394 1f42 d3c2 2b42 6c23 3842
00000080: 73ab fb3d e829 4340 739b c340 4e53 1341
00000090: eb76 4341 97c4 7541 322d 9341 4057 ab41
000000a0: 9956 c341 d992 dc41 0e54 f541 d2eb 0642
000000b0: f07c 1342 6270 1f42 6bbb 2b42 9265 3842
000000c0: 4e95 debb b6e7 4c40 93d0 ca40 ac22 1741
000000d0: 9bcf 4341 fa27 7541 bbbc 9241 ce96 aa41
000000e0: b45d c341 3270 dc41 c621 f541 0ced 0642
000000f0: 3f20 1342 b0c4 1f42 b09a 2b42 870e 3842
00000100: 7de4 243e 1172 3f40 26f9 bf40 c30f 1241
00000110: 6193 4541 71fd 7141 13eb 9341 c36c aa41
00000120: ebc8 c041 d0b5 e041 aa98 f441 1539 0642
00000130: 5734 1342 eb08 1f42 f5a2 2c42 2f4d 3842
00000140: 7ed9 82bd ce58 4b40 f582 c340 2aeb 1141
00000150: b932 4241 717a 7341 cccb 9341 3c5d ab41
00000160: 89e6 c441 5f76 dc41 0786 f541 a4d4 0642
00000170: 63d4 1242 5d26 1f42 20a4 2b42 513c 3842
00000180: 8bd0 88bd 6e30 3240 79dd c440 df7c 1141
00000190: 375e 4741 333f 7241 1bcf 9241 a0b2 ab41
000001a0: a0f5 c441 dad8 dc41 6f66 f541 61c3 0642
000001b0: 32c2 1242 48bc 1f42 1b81 2b42 61a2 3742
000001c0: 6d85 82be f5d2 4740 c819 bb40 64a1 1441
000001d0: 5290 4641 5b63 7541 3345 9341 d350 ac41
000001e0: 95f0 c441 7bc7 dc41 6452 f641 a1d7 0642
000001f0: e22b 1342 a17b 1f42 ee0c 2c42 943e 3842
00000200: 6eae 06be 7687 3540 4da5 c040 708b 0f41
00000210: b79d 4341 1f5a 7641 6f0b 9541 2f5b aa41
00000220: bc22 c341 8803 dd41 030a f641 5d29 0742
00000230: 4e60 1342 eb74 1f42 73da 2b42 7719 3842
00000240: d959 c8bc 19df 4b40 fee7 c240 2228 1641
00000250: 25ee 4341 4d1a 7441 ea94 9241 8266 ab41
00000260: e385 c441 44ac dc41 698a f441 8a0f 0742
00000270: d63d 1342 3fd6 1f42 0783 2b42 3f4a 3842
00000280: 3eb1 85bd 0345 3340 139b c540 9527 1541
00000290: 4ffd 4541 1300 7141 41fe 9341 f808 ab41
000002a0: 1107 c441 528d dd41 c04f f541 ee51 0642
000002b0: 7685 1342 99b2 1f42 9b10 2c42 e4ee 3742
000002c0: 05e5 9e3c d663 2f40 0aca b540 9600 1641
000002d0: d286 4641 f8c8 7441 765d 9441 dc67 ac41
000002e0: df40 c241 ab83 da41 c9ea f541 6868 0842
000002f0: 00bb 1242 090c 1f42 c145 2c42 f5b1 3742
00000300: 91eb d73b 004b 3a40 4472 c540 12ee 1a41
00000310: b040 3f41 5d48 6f41 3039 9141 4276 a841
00000320: fa80 c441 e83f e141 c88f f841 6104 0742
00000330: 3a95 1142 b87f 1f42 7a71 2c42 b771 3942
00000340: 0922 2d3d 1a15 4840 40d6 c340 2def 0f41
00000350: 96fd 4541 5202 7241 0923 9041 9a97 ad41
00000360: 96e5 c341 0264 da41 37d8 f641 b8a8 0542
00000370: 15db 1242 0f2c 2042 7617 2b42 a202 3842
00000380: dcbd 21be e9b4 2840 1ff0 c140 7969 1541
00000390: 4e1f 4641 7f3e 7341 7fee 9241 8b0d ab41
000003a0: 3d7d c341 71b4 dc41 1616 f641 8120 0742
000003b0: 22cd 1342 9545 1f42 d51a 2c42 d079 3842
000003c0: f97e 35be 41ee 4940 8839 c840 bc5c 1041
000003d0: 08bd 4441 e778 7441 0361 9341 dfcc ab41
000003e0: 428a c641 9b80 db41 f13d f541 de16 0742
000003f0: d818 1342 bd1a 1f42 0ee8 2b42 69d3 3742

weight f4 [256, 128, 1]
-0.10015796 0.10013974 0.034326557 -0.017582241 -0.01709589 -0.030680895 -0.11600769 0.065281086
-0.043518156 0.04762889 -0.19216214 0.011559737 0.012022414 -0.07969677 -0.11250627 0.0007647766
-0.014827622 0.111027166 -0.074098885 0.015997844 -0.07844807 0.079460286 0.19677816 -0.12203081
-0.14559309 0.093987465 0.071760245 0.053497612 -0.18255357 -0.12209147 0.108589955 0.10054791
-0.26751494 -0.16553734 0.09029394 -0.25023022 0.04973849 -0.042551577 0.09696678 0.068628736
-0.1225796 0.035685543 0.063539915 0.0552864 -0.0017447361 -0.036023073 0.04597182 -0.0600503
-0.030063536 0.19449098 0.07768312 -0.085075386 0.059682265 0.08451166 0.044691104 0.101105034
-0.14316504 -0.24637684 -0.22247581 -0.12474668 -0.1769816 -0.05490102 0.03610119 -0.19587874
0.09392297 -0.03421015 0.024381043 -0.08094889 -0.047443528 -0.0680823 -0.0063133724 0.0038247185
-0.07420855 0.15801118 0.06310816 -0.112124264 0.13699688 0.0078016366 0.028475767 0.09221916
0.035232887 0.07338415 0.07385463 0.0026419486 0.08367588 0.10031368 -0.122706205 0.008148793
-0.073789455 0.1053025 0.03420388 0.035115402 0.0054241503 -0.121142164 -0.06665979 0.047025345
0.16113566 -0.25653437 -0.23519269 0.10054006 0.0026635597 -0.045711275 -0.24245 0.17104699
-0.03509143 -0.04749236 -0.023944298 0.054807078 -0.0032025333 -0.023220584 -0.18347646 -0.024885667
-0.021650428 0.20553173 -0.10506152 -0.16538244 0.03692315 -0.15606399 -0.14252195 0.043224175
-0.11547657 0.012946042 0.007582556 -0.10138406 -0.053032782 0.03639194 0.23812301 0.02132446
0.025858976 -0.091118395 -0.12806576 0.2794614 0.05690383 0.014943455 0.26418597 0.035046402
0.07355474 -0.0031398837 0.13121018 -0.0999058 0.051384557 -0.1737595 -0.050189167 0.029275088
0.04877461 -0.1749421 -0.06088345 -0.2772015 0.0442596 0.051550783 -0.22473195 0.04151266
0.0023927577 0.027985247 -0.12630938 -0.0923727 -0.05509528 0.26483774 -0.06693631 0.032290325
0.29330134 -0.060325384 -0.04919706 -0.016407078 0.09892758 -0.08682356 -0.27814528 0.027984316
-0.20818786 -0.05308191 -0.065524526 -0.011490781 0.08700608 0.029933143 -0.015662525 -0.012440702
-0.023903204 -0.23910724 0.0055394387 0.102186196 -0.058560994 -0.14461803 0.009483865 0.02076552
0.04817587 0.17783356 0.11098176 0.077312894 0.121921524 -0.14468262 0.025781114 -0.1079884
0.03836221 0.1786016 0.056520335 -0.030703804 -0.025114229 -0.1130606 -0.03958715 -0.018182367
0.17072797 -0.09007641 -0.05495382 0.05462838 0.06097726 -0.088001 0.06469668 0.039396606
0.096345626 0.15194032 0.040912468 0.07958925 -0.09099219 -0.0545569 0.09926486 -0.11856918
-0.002084505 0.05069729 -0.052775465 -0.1350557 -0.029810533 -0.06924773 0.10413347 -0.14984928
-0.07858167 0.27843297 0.09376896 -0.055586845 0.094724424 -0.09745692 -0.0572055 -0.017040065
0.010817349 -0.019012976 0.05038738 -0.07119706 0.07803176 -0.08674251 0.23728348 -0.012345898
-0.01303723 -0.07384413 0.06166 0.063008465 0.0790984 0.13435306 -0.092751764 0.07124472
0.31158832 -0.06651258 0.021731585 -0.11809736 0.01702928 -0.065846905 -0.08425177 0.07438529
00000000: 9e1f cdbd 1016 cd3d 019a 0c3d a208 90bc
00000010: ae0c 8cbc 8056 fbbc 7195 edbd 17b2 853d
00000020: 1840 32bd 8316 433d 27c6 44be 0d65 3d3c
00000030: a9f9 443c 0f38 a3bd b069 e6bd 4a7b 483a
00000040: 8eef 72bc 3662 e33d 28c1 97bd e90d 833c
00000050: 62a9 a0bd 13bc a23d 3780 493e 4aeb f9bd
00000060: 5b16 15be 807c c03d 09f7 923d 5020 5b3d
00000070: 53ef 3abe 180b fabd 6964 de3d 10ec cd3d
00000080: b8f7 88be 9f82 29be 07ec b83d 2d1e 80be
00000090: 96ba 4b3d 904a 2ebd 8596 c63d 398d 8c3d
000000a0: 030b fbbd 012b 123d 3721 823d fe73 623d
000000b0: a1af e4ba ee8c 13bd f24c 3c3d 4ef7 75bd
000000c0: ce47 f6bc a528 473e 5418 9f3d 013c aebd
000000d0: 6475 743d 7314 ad3d 050e 373d 2810 cf3d
000000e0: db99 12be 364a 7cbe b3d0 63be 307b ffbd
000000f0: aa3a 35be e4df 60bd d7de 133d 7094 48be
00000100: b05a c03d f11f 0cbd c1ba c73c 88c8 a5bd
00000110: 2554 42bd bc6e 8bbd 68e0 cebb 21a8 7a3b
00000120: a7fa 97bd afcd 213e da3e 813d 68a1 e5bd
00000130: e948 0c3e dfa4 ff3b 0346 e93c 66dd bc3d
00000140: 5c50 103d 6e4a 963d 1941 973d 8b24 2d3b
00000150: 435e ab3d 4271 cd3d 644d fbbd 8482 053c
00000160: ed1e 97bd d6a8 d73d 5e19 0c3d 2bd5 0f3d
00000170: 12bd b13b 6219 f8bd ee84 88bd a69d 403d
00000180: bf00 253e 7958 83be 5ad6 70be f2e7 cd3d
00000190: 1e8f 2e3b bf3b 3bbd d044 78be f126 2f3e
000001a0: 08bc 0fbd 5987 42bd d526 c4bc 637d 603d
000001b0: 98e1 51bb 1839 bebc 41e1 3bbe 07dd cbbc
000001c0: 3d5c b1bc e976 523e 7f2a d7bd 045a 29be
000001d0: bb3c 173d 3dcf 1fbe 46f1 11be d50b 313d
000001e0: fb7e ecbd a31b 543c 1777 f83b 72a2 cfbd
000001f0: e738 59bd b70f 153d 85d6 733e a2b0 ae3c
00000200: 34d6 d33c 489c babd ac23 03be 9115 8f3e
00000210: fe13 693d 65d5 743c 6243 873e d18c 0f3d
00000220: dea3 963d 82c6 4dbb f65b 063e 699b ccbd
00000230: 9d78 523d 03ee 31be 2893 4dbd 4fd2 ef3c
00000240: e3c7 473d 0624 33be ed60 79bd 5bed 8dbe
00000250: 8e49 353d ea26 533d 2220 66be 2e09 2a3d
00000260: d0cf 1c3b 5141 e53c 3f57 01be e62d bdbd
00000270: 97ab 61bd d098 873e e715 89bd dc42 043d
00000280: 982b 963e c017 77bd db82 49bd 2368 86bc
00000290: 8b9a ca3d 8dd0 b1bd 0f69 8ebe 5d3f e53c
000002a0: 332f 55be 6b6c 59bd b931 86bd d443 3cbc
000002b0: 3e30 b23d 5a36 f53c b24e 80bc 16d4 4bbc
000002c0: a7d0 c3bc 87d8 74be 2e84 b53b ff46 d13d
000002d0: a7dd 6fbd c016 14be 3762 1b3c 741c aa3c
000002e0: 1054 453d 001a 363e 684a e33d 3956 9e3d
000002f0: feb1 f93d ae27 14be ea32 d33c 0629 ddbd
00000300: b121 1d3d 56e3 363e de81 673d 8b86 fbbc
00000310: 5bbc cdbc 518c e7bd 2326 22bd 30f3 94bc
00000320: 50d3 2e3e fb79 b8bd 4217 61bd 02c2 5f3d
00000330: 4bc3 793d de39 b4bd b17f 843d 565e 213d
00000340: db50 c53d 3e96 1b3e d593 273d b0ff a23d
00000350: 1d5a babd 0e77 5fbd 604b cb3d 66d4 f2bd
00000360: 319c 08bb f6a7 4f3d 162b 58bd 0b4c 0abe
00000370: 3835 f4bc c1d1 8dbd ee43 d53d 1772 19be
00000380: 6def a0bd c48e 8e3e f109 c03d 08af 63bd
00000390: e1fe c13d 7e97 c7bd 5050 6abd 9b97 8bbc
000003a0: 403b 313c 1ac1 9bbc ff62 4e3d c4cf 91bd
000003b0: 1ecf 9f3d 0fa6 b1bd 71fa 723e 7346 4abc
000003c0: 1b9a 55bc 973b 97bd 328f 7c3d 950a 813d
000003d0: 58fe a13d d993 093e a3f4 bdbd c0e8 913d
000003e0: 8188 9f3e bf37 88bd 7006 b23c 07dd f1bd
000003f0: fd80 8b3c beda 86bd 318c acbd 5157 983d

bias f4 [256]
0.055045005 0.054704454 -0.08232373 -0.04426046 -0.07693789 0.05936293 -0.020373326 0.026859226
0.03661442 -0.054433446 0.009546556 -0.054326303 0.08820997 -0.0040100166 -0.010369402 0.0785833
-0.03401153 -0.0062106946 0.034898873 -0.07746185 0.11438597 0.021701247 0.039979246 0.2905563
-0.079762496 -0.014446911 0.02558092 -0.037978627 -0.049165525 -0.03156504 -0.08541133 0.06496054
-0.050779726 -0.03072252 0.039337818 -0.027271504 -0.032416977 0.022209559 -0.050158072 0.06063324
0.05514334 0.029477775 0.07231338 -0.015227806 -0.001250489 -0.086606435 0.020139363 -0.14001876
-0.036479287 -0.057545055 0.016227117 0.07152272 0.0041303006 0.08101459 -0.10022479 0.06738667
0.07934602 0.031909663 0.014763713 -0.034031283 -0.068833984 -0.056657262 0.048273858 0.025627315
-0.045441795 -0.06653639 -0.10877431 0.03158235 -0.061476436 0.0018745422 -0.041671786 -0.03555681
0.06263997 0.008759763 -0.10295464 -0.048493203 0.0735724 -0.07493775 -0.023537776 -0.007004963
-0.06468947 0.04512365 -0.00955668 -0.053598695 0.039585486 -0.021754146 -0.050373428 0.0048719863
0.02092041 0.09533629 0.0033224553 0.27764657 -0.0025540404 0.024489377 0.020195117 -0.03883158
0.10621668 0.021770136 0.031008204 0.052061327 0.058752585 0.07607924 0.14922884 -0.0073959995
0.004889858 -0.059074886 0.03210821 0.043915812 0.040421054 0.054865453 -0.07912403 0.06090664
0.027708037 -0.04587102 0.06557516 0.07557373 0.027693711 0.02928597 -0.07193586 0.09392398
-0.029727228 0.006129638 0.015838826 -0.06699076 0.2732032 0.045651708 0.008470176 -0.06530535
0.058977563 0.06781344 0.1527951 -0.09914371 0.008415713 0.057876837 -0.05497755 0.10889385
-0.041342266 -0.030438311 0.028556993 0.010080053 0.013382553 -0.02677765 0.013308523 0.08134732
-0.0046618134 -0.005507953 0.033349387 0.041169055 -0.0014942735 0.011526639 0.03571522 0.2189794
0.1708935 0.0553606 0.038325194 0.10642417 -0.003935379 -0.03331149 0.06570368 0.15063418
-0.057863407 0.12878184 0.1055174 0.07955922 -0.06345974 0.025993466 -0.15062737 -0.081676476
0.05576097 0.009728554 0.00868626 0.039422784 0.0939769 -0.05143605 0.13949643 -0.045644715
-0.10022353 0.007857251 0.058878038 0.04248366 -0.0064105657 0.041052375 0.23056556 0.08090876
0.059504636 -0.08023515 -0.013765105 0.05141052 -0.094347514 0.014463202 0.014310401 -0.022431279
0.09136989 -0.07572589 0.17219551 -0.004848532 -0.052224454 0.1233157 0.048613787 -0.08127852
0.11324407 0.013000968 0.053224888 0.15319206 0.054542042 -0.033974532 0.09164839 0.094857365
0.010711173 -0.01142994 0.04054539 0.12556937 0.054041054 0.06380689 -0.10071931 0.10215741
0.11177924 0.15435174 -0.029225973 0.2631192 0.07162103 0.11082165 0.11089987 0.06311646
0.050338496 -0.011064691 0.105876945 0.03197703 -0.07539491 0.15967064 0.13509497 0.05071305
0.022838153 -0.036773577 0.066507965 0.02907447 0.13369796 0.18831946 0.04126589 -0.018528134
0.08580891 0.11274973 0.051451948 -0.022582812 0.13531233 0.07773562 -0.009338887 0.07704113
0.007424885 0.09223314 0.08602345 0.107944146 0.1770056 -0.09819704 0.05090843 -0.00797625
00000000: df76 613d c711 603d 5899 a8bd 754a 35bd
00000010: 9d91 9dbd 8b26 733d f6e5 a6bc e107 dc3c
00000020: 01f9 153d 9bf5 5ebd 2869 1c3c 4285 5ebd
00000030: 6ea7 b43d 7566 83bb 6de4 29bc 48f0 a03d
00000040: ad4f 0bbd 1583 cbbb 1ff2 0e3d 52a4 9ebd
00000050: 3143 ea3d d0c6 b13c 47c1 233d ccc3 943e
00000060: 855a a3bd bdb2 6cbc 148f d13c 7a8f 1bbd
00000070: ca61 49bd 584a 01bd 23ec aebd 080a 853d
00000080: 67fe 4fbd cbad fbbc b120 213d 7d68 dfbc
00000090: aac7 04bd d2f0 b53c 8d72 4dbd 8f5a 783d
000000a0: fcdd 613d 607b f13c 0a19 943d 0c7e 79bc
000000b0: 73e7 a3ba b75e b1bd 4efb a43c 1461 0fbe
000000c0: 4e6b 15bd 5db4 6bbd bbee 843c 817a 923d
000000d0: 7957 873b faea a53d a842 cdbd 0602 8a3d
000000e0: 2b80 a23d b5b3 023d 80e3 713c 6364 0bbd
000000f0: d5f8 8cbd 7211 68bd cfba 453d 60f0 d13c
00000100: 2d21 3abd 3b44 88bd 11c5 debd 7f5c 013d
00000110: b7ce 7bbd 33b3 f53a 09b0 2abd 05a4 11bd
00000120: 6249 803d 1c85 0f3c e2d9 d2bd cfa0 46bd
00000130: 20ad 963d f778 99bd 4bd2 c0bc e389 e5bb
00000140: ea7b 84bd 94d3 383d 9f93 1cbc 4e8a 5bbd
00000150: 6424 223d c035 b2bc 5e54 4ebd 2fa5 9f3b
00000160: 4861 ab3c ac3f c33d 8dbd 593b b127 8e3e
00000170: b061 27bb f29d c83c 3b70 a53c dd0d 1fbd
00000180: 2188 d93d 4957 b23c eb04 fe3c 423e 553d
00000190: 8da6 703d 6fcf 9b3d 72cf 183e 245a f2bb
000001a0: 1a3b a03b 82f8 71bd e683 033d 11e1 333d
000001b0: 8c90 253d 99ba 603d c80b a2bd 3e79 793d
000001c0: f7fb e23c 40e3 3bbd 454c 863d 66c6 9a3d
000001d0: ecdd e23c 21e9 ef3c 1c53 93bd 375b c03d
000001e0: 8486 f3bc 21db c83b 6dc0 813c 7432 89bd
000001f0: 4ae1 8b3e 49fd 3a3d 7ec6 0a3c d0be 85bd
00000200: 7592 713d c6e1 8a3d 5276 1c3e dc0b cbbd
00000210: 0fe2 093c 4310 6d3d 2430 61bd bd03 df3d
00000220: 8256 29bd c459 f9bc 5bf0 e93c ce26 253c
00000230: 7f42 5b3c cd5c dbbc fe0b 5a3c 6c99 a63d
00000240: 20c2 98bb 0f7c b4bb 5e99 083d e2a0 283d
00000250: 80db c3ba 3ada 3c3c 1f4a 123d 233c 603e
00000260: b5fe 2e3e ccc1 623d e1fa 1c3d eaf4 d93d
00000270: 5af4 80bb a171 08bd a78f 863d d93f 1a3e
00000280: 2e02 6dbd 63df 033e 8219 d83d f2ef a23d
00000290: 2ef7 81bd 40f0 d43c 103e 1abe ff45 a7bd
000002a0: 9d65 643d 8364 1f3c d150 0e3c c979 213d
000002b0: f676 c03d 9cae 52bd 27d8 0e3e f4f5 3abd
000002c0: fe41 cdbd b3bb 003c 192a 713d 5903 2e3d
000002d0: b90f d2bb 8926 283d 6119 6c3e 7eb3 a53d
000002e0: 22bb 733d 5452 a4bd 0987 61bc d693 523d
000002f0: 4539 c1bd 11f7 6c3c 2c76 6a3c cdc1 b7bc
00000300: 2320 bb3d 2d16 9bbd 0554 303e 6fe0 9ebb
00000310: 4fe9 55bd f18c fc3d 401f 473d 5a75 a6bd
00000320: 82ec e73d 0302 553c 5702 5a3d 61de 1c3e
00000330: 7a67 5f3d e128 0bbd 27b2 bb3d 9444 c23d
00000340: ea7d 2f3c a544 3bbc ec12 263d 4295 003e
00000350: 275a 5d3d 30ad 823d ed45 cebd e737 d13d
00000360: 84ec e43d 620e 1e3e 4f6b efbc 8fb7 863e
00000370: 0cae 923d 76f6 e23d 791f e33d 3443 813d
00000380: bd2f 4e3d ad48 35bc 03d6 d83d 59fa 023d
00000390: a668 9abd b380 233e 5656 0a3e 7db8 4f3d
000003a0: 1417 bb3c e49f 16bd 5435 883d 952d ee3c
000003b0: 1ee8 083e d1d6 403e 6c06 293d 50c8 97bc
000003c0: 95bc af3d 55e9 e63d 47bf 523d 97ff b8bc
000003d0: 518f 0a3e da33 9f3d 2202 19bc bdc7 9d3d
000003e0: 734c f33b bae4 bc3d 102d b03d d211 dd3d
000003f0: f540 353e 881b c9bd 5c85 503d d1ae 02bc

D f4 [128]
1.7758074 0.16860308 -0.62972325 0.84508234 0.15175213 -0.7048848 -1.5005846 1.4838219
0.8880347 0.6643815 -0.57725865 -0.16450755 -0.9927998 -1.0039709 -0.9387889 0.47174358
-0.40241528 0.83270437 -0.38340864 1.1514616 -0.05567823 -0.11689128 -0.108103275 -0.85235995
-0.84026283 1.7684355 0.93574286 -0.33238077 -0.7720275 1.2908448 -0.8578017 1.3455992
0.15415266 0.0149865225 -0.41167775 0.577876 1.0191535 0.8432165 0.1992856 -1.0855159
-0.839924 0.46605572 0.86978346 0.8239784 1.5839295 0.72406423 -0.082000606 -0.38531554
-0.6417103 0.17682493 -0.7662715 -1.0684446 -0.3190388 -1.6851455 0.22849351 1.9945873
0.68782544 -1.6483197 -1.1400403 -0.87509555 0.08575387 0.3115516 -0.11821359 0.82303244
0.6814681 -1.2967288 -0.46205613 0.9265543 0.79036653 0.79837745 1.783558 -0.6987794
-0.6155308 0.3355576 -0.40332398 1.1636599 0.26109755 0.62778366 -0.029878387 -1.7956078
0.13508332 -0.16411154 1.3403152 -0.55611247 -1.1695036 1.2691151 -0.3709457 0.809778
1.0746107 0.2124437 0.015761944 0.08237041 0.30841428 0.5497736 -1.2544435 -0.7629837
2.547442 -2.517944 -1.0888157 0.15208599 -0.45061013 -0.88190013 -0.66515476 1.2647017
0.50230896 -1.6692693 0.5044713 0.5603807 0.38707885 0.9147223 -0.36908054 -0.11906916
0.76453054 2.0125763 -0.5612373 -0.61470026 -0.8109252 -0.008572561 0.0281634 -0.14138527
-0.7400969 0.09052322 0.7045996 0.70445204 -0.5700931 -1.0056849 0.5201008 -0.25243166
00000000: a84d e33f 49a6 2c3e 8b35 21bf 5157 583f
00000010: e964 1b3e 5573 34bf 2813 c0bf e0ed bd3f
00000020: 3e56 633f e814 2a3f 39c7 13bf ab74 28be
00000030: 2128 7ebf 1e82 80bf 7854 70bf 6088 f13e
00000040: 6009 cebe 1d2c 553f 234e c4be 1863 933f
00000050: db0e 64bd b264 efbd 4065 ddbd 4334 5abf
00000060: 771b 57bf 185c e23f d88c 6f3f d02d aabe
00000070: 98a3 45bf 673a a53f e498 5bbf 983c ac3f
00000080: 32da 1d3e 088a 753c 6dc7 d2be aeef 133f
00000090: 9f73 823f 09dd 573f 8611 4c3e 2ff2 8abf
000000a0: 4205 57bf db9e ee3e 21aa 5e3f 40f0 523f
000000b0: 34be ca3f 465c 393f efef a7bd 1448 c5be
000000c0: 2047 24bf 9811 353e 5e2a 44bf cbc2 88bf
000000d0: 0e59 a3be d9b2 d7bf 34fa 693e a34e ff3f
000000e0: 5415 303f 24fc d2bf d7ec 91bf 4306 60bf
000000f0: ba9f af3d b183 9f3e f719 f2bd 41b2 523f
00000100: b274 2e3f 36fb a5bf 9f92 ecbe aa32 6d3f
00000110: 7655 4a3f 7762 4c3f a14b e43f 35e3 32bf
00000120: 6d93 1dbf 35ce ab3e 7b80 cebe cff2 943f
00000130: 94ae 853e 6eb6 203f 85c3 f4bc 7ad6 e5bf
00000140: 4853 0a3e db0c 28be 738f ab3f 635d 0ebf
00000150: 4bb2 95bf 5d72 a23f 98ec bdbe 9c4d 4f3f
00000160: d88c 893f d78a 593e 311f 813c d1b1 a83d
00000170: 7ae8 9d3e f6bd 0c3f 9b91 a0bf e652 43bf
00000180: 4a09 2340 ff25 21c0 505e 8bbf 6ebc 1b3e
00000190: 5fb6 e6be 35c4 61bf 9547 2abf bfe1 a13f
000001a0: 5297 003f 9eaa d5bf 0825 013f 1c75 0f3f
000001b0: 332f c63e 3e2b 6a3f 20f8 bcbe 88da f3bd
000001c0: 46b8 433f 0dce 0040 3fad 0fbf ff5c 1dbf
000001d0: cb98 4fbf ed73 0cbc eeb6 e63c 4dc7 10be
000001e0: fe76 3dbf 3d64 b93d a460 343f f856 343f
000001f0: 9ff1 11bf 48ba 80bf 5325 053f b93e 81be
