models/gwak/metric_NF_onlyBkg.pt (torch, 740503 bytes, 73 tensors)

weight f4 [64, 8]
00000000: 39b9 373e 8211 3a3e 653e 693c 0328 aebd
00000010: bff1 8fbe 072a 9fbe 7705 a3be a72b 4cbd
00000020: 27ab 483e eba3 6a3e d729 22bd 6d8d 9b3a
00000030: fcae 9cbb 879b fb3d f52d d3bd 350f 8e3c
00000040: 13cb 18be 56c5 fbbd c802 9abe 629f 983d
00000050: f564 cb3c 14de 32be 4ced f5bd 91e5 443e
00000060: bbe7 d2bd 26f0 33bd 22da ac3e ac30 233e
00000070: 6005 663c ad66 37be c2e8 ac3e 5a07 a13d
00000080: e313 993e f904 0c3e 6c53 703e c07f 36be
00000090: c5ae ac3e 2fbf 5f3b 9fe6 9d3e daea 853e
000000a0: d69d bc3d 7ffd a83e c901 8cbe dba3 7d3e
000000b0: db88 bfbb cf0e d4bd 598d 1bbe aad2 0dbd
000000c0: ecf2 303e 9caf 9cbe 47b6 aebe 3e8c 533d
000000d0: 2855 b6be dcf4 39be b8cf 563e b70a 44be
000000e0: 8528 e63d fbef a6be ed3c 17bc e025 bd3c
000000f0: 2250 6c3e 5f19 52bc ca04 4b3d 0775 953e
00000100: b810 a9bd 3d5c 8e3e 4e99 e43d 334e f9bd
00000110: ff37 02be 4f7e 92be 25a8 2fbd 1d57 163c
00000120: 7632 863e b06b debd 951b 2d3d 874a 8fbe
00000130: e4ff cd3d 447c 32be 169c d4bd 2fde 0bbe
00000140: b4ef 3bbe ca0c f43b fc8b 8abe f6e0 6b3e
00000150: 6f4d 9b3e 4d86 27be 7473 a5be 71ef 2dbd
00000160: d140 3bbe e641 aebe 441b d43d f0c0 073d
00000170: 7b2e 973c 3eef 9c3e 769e 92be 7c2a 803d
00000180: 9a3d 66bd 290d 1abd db81 8e3e b6ba 743e
00000190: ec23 4b3e 957d 4cbe dc7c 59be e450 83be
000001a0: 3feb 22be 7eba 4ebe d95d 14be 8f38 203e
000001b0: 932d f43d 8120 833e f573 86be 111c 15be
000001c0: e133 4cbe bd2c aa3e 7e7d 633c 8d6c 6c3e
000001d0: f0e3 a53e bfa3 2b3e a821 41be 779d 993e
000001e0: 0502 9cbe ce4c 9ebe afd2 09bc 073f aa3e
000001f0: 82a4 a8be f68a 7abd a55b ac3e 0679 51be
00000200: 5aed 063d 328f 193e 2c26 bcbd b3e8 363d
00000210: c401 8cbe e419 693d 9200 053e 7c39 ee3d
00000220: 77a5 ac3e 9892 b4be 490a 98be 8085 a23e
00000230: 3a9c 00be bf31 e6bd e596 913e 289f 08be
00000240: c14a 8fbe 3551 e7bd 533a 9c3e 440e 1d3e
00000250: b548 5fbc f74f a7be c1f1 b4be b098 103d
00000260: 9f91 24bc a366 603e c411 483e a860 33be
00000270: 0d52 d73d 5561 abbe 8f08 cdbd 22e6 9ebe
00000280: 7b6d 10be 6aa6 53be 341c cfbc a52d a33e
00000290: 0280 913d e0b1 a8be ab7e 9dbe 4654 e43d
000002a0: 27de a13e 895a 36be df12 a8be 190d a23e
000002b0: fd93 a1be e3c2 00bd a677 60bd e9e1 a2bd
000002c0: f084 67be abe4 0c3d 6e74 4ebd 69aa 84be
000002d0: fc95 4abe 3351 a03e f26c a6be 53e9 94be
000002e0: e1c2 2a3e 78e7 76be 617c 673e 5719 383e
000002f0: 4e83 88be edcc 6a3e 8499 3c3d 4a6c 1dbe
00000300: ce26 b6bd a4c2 843c d22f 013e ba01 f1bc
00000310: 5487 62be 62e6 9cbd 49bd 633e f55f 7abe
00000320: f2c6 6cbd 733f 363e f2f0 ab3e 47a6 61be
00000330: 8cbc 9d3d 5c0a 903e 0394 5ebe 84a6 ad3e
00000340: cb6d c8bc 76ef a0bd 213a 7e3e ecd2 c5bd
00000350: 620f 843e ec0f 6bbe 99d0 a8bd ff47 a2be
00000360: 4d1d 3c3e 9e1a 96be 11bd 9ebe 0d2b a8bc
00000370: 65ce a3be 2bdd 95be e500 fc3d b58e 86bc
00000380: 6fe1 283e f705 6cbe 8361 b2be 3c7f f43c
00000390: ea38 08be fe92 9b3e d13f 283d ed1c 4c3e
000003a0: bdf7 913d 48be a13e acf5 7f3e 62db 82bd
000003b0: 57f4 2cbe 78b2 043e 804f a13e d09d 8ebe
000003c0: 0ec0 903e 4de2 983e 4b1f adbe e8cc 593e
000003d0: e6b4 1e3e 5cb1 943e d499 613e 5c2d 583e
000003e0: 3667 60be e8bb 90bc a0f4 8e3e 3e21 99be
000003f0: 1674 ddbd 1146 d7bd bb2d 78be c8d7 693e
0.1794175 0.18170741 0.014236067 -0.085037254 -0.28114125 -0.31086752 -0.31840107 -0.049846318
0.1959654 0.22914092 -0.039590683 0.001186771 -0.004781602 0.12285524 -0.103115 0.017341236
-0.14921217 -0.12293498 -0.30080247 0.07452275 0.024828414 -0.17467529 -0.120081514 0.19228198
-0.10298105 -0.043930195 0.33760172 0.15936536 0.014039367 -0.17910261 0.3377133 0.0786273
0.29897985 0.13673772 0.23469323 -0.1782217 0.3372709 0.0034141054 0.30840012 0.2615574
0.09209792 0.33005902 -0.27345112 0.24769537 -0.005845172 -0.10354387 -0.15190639 -0.034624733
0.17280167 -0.3060273 -0.34123442 0.051647417 -0.35611844 -0.18159813 0.20977676 -0.19144712
0.11238197 -0.32604966 -0.009230834 0.02308935 0.23077443 -0.012823432 0.049565114 0.29190847
-0.08255142 0.27804747 0.11162053 -0.121731184 -0.12716673 -0.2861199 -0.042884964 0.009176043
0.26210374 -0.108603835 0.042262632 -0.27986547 0.10058573 -0.17430216 -0.103813335 -0.13658975
-0.18353158 0.0074478136 -0.27059925 0.23035035 0.30332515 -0.16359825 -0.32314646 -0.042464677
-0.18286444 -0.34034652 0.10356763 0.033142984 0.01845478 0.30651277 -0.2863652 0.06258103
-0.05621109 -0.037610207 0.27833447 0.2389935 0.19837922 -0.1996978 -0.21239036 -0.25647652
-0.15910052 -0.20188329 -0.14488925 0.15646575 0.11922755 0.25610736 -0.26260343 -0.14561488
-0.19941665 0.33237258 0.0138849 0.23088284 0.32400465 0.16761683 -0.18860495 0.3000295
-0.3047029 -0.30917972 -0.008412047 0.3325121 -0.3293801 -0.06116768 0.3366367 -0.20456323
0.0329412 0.14996031 -0.09186968 0.044655513 -0.27345097 0.056909457 0.12988499 0.11632058
0.3371999 -0.35268092 -0.29695347 0.31742477 -0.12559596 -0.11239957 0.28435436 -0.13341963
-0.2798672 -0.11294786 0.30513248 0.15337473 -0.013628175 -0.32678196 -0.35340694 0.035301864
-0.010044484 0.21914153 0.19538027 -0.1751734 0.10513697 -0.33472696 -0.10011398 -0.31034952
-0.14104263 -0.2066895 -0.025282003 0.31870762 0.07104494 -0.32948208 -0.30760702 0.111488864
0.316148 -0.17807974 -0.32826898 0.31650618 -0.3155822 -0.03143586 -0.054801606 -0.07953245
-0.22609305 0.034397762 -0.050404005 -0.25911263 -0.19783777 0.3131195 -0.32504994 -0.29084262
0.16675903 -0.24111736 0.2260604 0.17978416 -0.26662678 0.22929735 0.04604484 -0.1537334
-0.0889412 0.016206093 0.12615898 -0.029419769 -0.22121936 -0.076611295 0.22240175 -0.24450667
-0.057806917 0.17797641 0.33582264 -0.22036086 0.07701978 0.28132904 -0.2173615 0.33916104
-0.024466416 -0.078581735 0.24826862 -0.09659371 0.25792986 -0.22955292 -0.08242912 -0.31695554
0.18370552 -0.29317182 -0.3100362 -0.02052834 -0.31993404 -0.292703 0.12304858 -0.01642547
0.16492246 -0.2304915 -0.3484002 0.029845826 -0.13302961 0.30385584 0.041076485 0.1993291
0.071273305 0.31590486 0.2499606 -0.063895 -0.16890083 0.12958705 0.31505966 -0.27854776
0.28271526 0.29860154 -0.33812937 0.21269572 0.15498695 0.29041564 0.22031337 0.21111053
-0.21914372 -0.017667726 0.2792101 -0.29908174 -0.10813157 -0.10511411 -0.24236195 0.2283622

bias f4 [64]
00000000: a03e 3ebd d833 d0bd 2cf3 4cbd 58a2 523e
00000010: f470 ab3c d6ad a0be c357 8a3e e0c6 a33c
00000020: 73dd 843d 4424 9b3e b040 c1bd 6879 623e
00000030: 2e2e bbbd 30b2 4ebe 9ed9 793e 14b0 bdbd
00000040: bb94 3a3e e333 37bd 3861 97bd f58a d83c
00000050: 0eea 783e 5eb8 afbd e0a1 b73e 6f3d 7abe
00000060: 477c 733d d191 9f3d 8426 29be 2135 18be
00000070: 6dee 8dbe 04ba 823d 5e0c 0abd 19bc 4fbe
00000080: 0f32 5dbd 627c 17be db59 8a3c 822d 12bc
00000090: ae35 17bd 5ab6 f8bd 116e 9e3e 0b07 f73d
000000a0: 6f5f 9d3e 10bf 90be 9305 6a3d 1ded 9f3e
000000b0: fe64 eb3b 422d 28be 6dd1 34be a428 ab3d
000000c0: 56d5 003e 6915 48be 6cd7 b63e 8fca a8be
000000d0: dfe5 813e 3fc6 d5bb baba 6ebd d670 29be
000000e0: 95ab f4bd 7fb9 83be 5ba7 be3c e5df 593e
000000f0: c510 a6be 4bd4 1bbe 5c24 633e cd6e 8a3d
-0.046446443 -0.101661384 -0.050036594 0.20569742 0.020927884 -0.31382626 0.27020082 0.019992292
0.064875506 0.30301106 -0.09436166 0.22116625 -0.091396675 -0.2018516 0.2439942 -0.092621
0.18220799 -0.044727217 -0.0739159 0.026433447 0.24308035 -0.08580087 0.35865688 -0.24437498
0.059444692 0.07791484 -0.16518599 -0.14864017 -0.27720967 0.06383136 -0.0337032 -0.20286597
-0.054002818 -0.14793542 0.01688855 -0.008921983 -0.036916427 -0.12144156 0.3094335 0.1206189
0.30736873 -0.2827077 0.057134222 0.3123559 0.00718367 -0.16423514 -0.17658015 0.08357361
0.12581381 -0.19539417 0.3571123 -0.3296704 0.2537069 -0.006523877 -0.058283545 -0.1654695
-0.11946789 -0.2572746 0.02327316 0.21276815 -0.3243467 -0.15217702 0.22181839 0.06759415

mask f4 [64, 8]
00000000: 0000 803f 0000 0000 0000 0000 0000 0000
00000010: 0000 0000 0000 0000 0000 0000 0000 0000
00000020: 0000 803f 0000 803f 0000 0000 0000 0000
00000030: 0000 0000 0000 0000 0000 0000 0000 0000
00000040: 0000 803f 0000 803f 0000 803f 0000 0000
00000050: 0000 0000 0000 0000 0000 0000 0000 0000
00000060: 0000 803f 0000 803f 0000 803f 0000 803f
00000070: 0000 0000 0000 0000 0000 0000 0000 0000
00000080: 0000 803f 0000 803f 0000 803f 0000 803f
00000090: 0000 803f 0000 0000 0000 0000 0000 0000
000000a0: 0000 803f 0000 803f 0000 803f 0000 803f
000000b0: 0000 803f 0000 803f 0000 0000 0000 0000
000000c0: 0000 803f 0000 803f 0000 803f 0000 803f
000000d0: 0000 803f 0000 803f 0000 803f 0000 0000
000000e0: 0000 803f 0000 0000 0000 0000 0000 0000
000000f0: 0000 0000 0000 0000 0000 0000 0000 0000
00000100: 0000 803f 0000 803f 0000 0000 0000 0000
00000110: 0000 0000 0000 0000 0000 0000 0000 0000
00000120: 0000 803f 0000 803f 0000 803f 0000 0000
00000130: 0000 0000 0000 0000 0000 0000 0000 0000
00000140: 0000 803f 0000 803f 0000 803f 0000 803f
00000150: 0000 0000 0000 0000 0000 0000 0000 0000
00000160: 0000 803f 0000 803f 0000 803f 0000 803f
00000170: 0000 803f 0000 0000 0000 0000 0000 0000
00000180: 0000 803f 0000 803f 0000 803f 0000 803f
00000190: 0000 803f 0000 803f 0000 0000 0000 0000
000001a0: 0000 803f 0000 803f 0000 803f 0000 803f
000001b0: 0000 803f 0000 803f 0000 803f 0000 0000
000001c0: 0000 803f 0000 0000 0000 0000 0000 0000
000001d0: 0000 0000 0000 0000 0000 0000 0000 0000
000001e0: 0000 803f 0000 803f 0000 0000 0000 0000
000001f0: 0000 0000 0000 0000 0000 0000 0000 0000
00000200: 0000 803f 0000 803f 0000 803f 0000 0000
00000210: 0000 0000 0000 0000 0000 0000 0000 0000
00000220: 0000 803f 0000 803f 0000 803f 0000 803f
00000230: 0000 0000 0000 0000 0000 0000 0000 0000
00000240: 0000 803f 0000 803f 0000 803f 0000 803f
00000250: 0000 803f 0000 0000 0000 0000 0000 0000
00000260: 0000 803f 0000 803f 0000 803f 0000 803f
00000270: 0000 803f 0000 803f 0000 0000 0000 0000
00000280: 0000 803f 0000 803f 0000 803f 0000 803f
00000290: 0000 803f 0000 803f 0000 803f 0000 0000
000002a0: 0000 803f 0000 0000 0000 0000 0000 0000
000002b0: 0000 0000 0000 0000 0000 0000 0000 0000
000002c0: 0000 803f 0000 803f 0000 0000 0000 0000
000002d0: 0000 0000 0000 0000 0000 0000 0000 0000
000002e0: 0000 803f 0000 803f 0000 803f 0000 0000
000002f0: 0000 0000 0000 0000 0000 0000 0000 0000
00000300: 0000 803f 0000 803f 0000 803f 0000 803f
00000310: 0000 0000 0000 0000 0000 0000 0000 0000
00000320: 0000 803f 0000 803f 0000 803f 0000 803f
00000330: 0000 803f 0000 0000 0000 0000 0000 0000
00000340: 0000 803f 0000 803f 0000 803f 0000 803f
00000350: 0000 803f 0000 803f 0000 0000 0000 0000
00000360: 0000 803f 0000 803f 0000 803f 0000 803f
00000370: 0000 803f 0000 803f 0000 803f 0000 0000
00000380: 0000 803f 0000 0000 0000 0000 0000 0000
00000390: 0000 0000 0000 0000 0000 0000 0000 0000
000003a0: 0000 803f 0000 803f 0000 0000 0000 0000
000003b0: 0000 0000 0000 0000 0000 0000 0000 0000
000003c0: 0000 803f 0000 803f 0000 803f 0000 0000
000003d0: 0000 0000 0000 0000 0000 0000 0000 0000
000003e0: 0000 803f 0000 803f 0000 803f 0000 803f
000003f0: 0000 0000 0000 0000 0000 0000 0000 0000
1.0 0.0 0.0 0.0 0.0 0.0 0.0 0.0
1.0 1.0 0.0 0.0 0.0 0.0 0.0 0.0
1.0 1.0 1.0 0.0 0.0 0.0 0.0 0.0
1.0 1.0 1.0 1.0 0.0 0.0 0.0 0.0
1.0 1.0 1.0 1.0 1.0 0.0 0.0 0.0
1.0 1.0 1.0 1.0 1.0 1.0 0.0 0.0
1.0 1.0 1.0 1.0 1.0 1.0 1.0 0.0
1.0 0.0 0.0 0.0 0.0 0.0 0.0 0.0
1.0 1.0 0.0 0.0 0.0 0.0 0.0 0.0
1.0 1.0 1.0 0.0 0.0 0.0 0.0 0.0
1.0 1.0 1.0 1.0 0.0 0.0 0.0 0.0
1.0 1.0 1.0 1.0 1.0 0.0 0.0 0.0
1.0 1.0 1.0 1.0 1.0 1.0 0.0 0.0
1.0 1.0 1.0 1.0 1.0 1.0 1.0 0.0
1.0 0.0 0.0 0.0 0.0 0.0 0.0 0.0
1.0 1.0 0.0 0.0 0.0 0.0 0.0 0.0
1.0 1.0 1.0 0.0 0.0 0.0 0.0 0.0
1.0 1.0 1.0 1.0 0.0 0.0 0.0 0.0
1.0 1.0 1.0 1.0 1.0 0.0 0.0 0.0
1.0 1.0 1.0 1.0 1.0 1.0 0.0 0.0
1.0 1.0 1.0 1.0 1.0 1.0 1.0 0.0
1.0 0.0 0.0 0.0 0.0 0.0 0.0 0.0
1.0 1.0 0.0 0.0 0.0 0.0 0.0 0.0
1.0 1.0 1.0 0.0 0.0 0.0 0.0 0.0
1.0 1.0 1.0 1.0 0.0 0.0 0.0 0.0
1.0 1.0 1.0 1.0 1.0 0.0 0.0 0.0
1.0 1.0 1.0 1.0 1.0 1.0 0.0 0.0
1.0 1.0 1.0 1.0 1.0 1.0 1.0 0.0
1.0 0.0 0.0 0.0 0.0 0.0 0.0 0.0
1.0 1.0 0.0 0.0 0.0 0.0 0.0 0.0
1.0 1.0 1.0 0.0 0.0 0.0 0.0 0.0
1.0 1.0 1.0 1.0 0.0 0.0 0.0 0.0

weight f4 [64, 64]
00000000: 6098 383d 0c57 413d 94b7 cd3d 1e03 d23d
00000010: 9806 52bd 8024 68bd 2009 113c 0016 1fbd
00000020: 9c65 f13d 9095 06bd 90a7 92bd e8b8 913c
00000030: 9090 fabc 981d c9bd b0cf 8d3c 241c 5cbd
00000040: ba63 eebd 10a1 55bc e0ad 663c b04e 07bd
00000050: 7a4e f33d 3ec8 b53d c0e2 43bc 5a50 d93d
00000060: a06c a53d 38bf d53d 70bd f03d 2287 c2bd
00000070: 40f4 75bd f8ed 86bc 3adc dbbd f648 f8bd
00000080: aa1c 94bd a081 c13d 04d5 6bbd b450 573d
00000090: 40b8 6dbc ea8f b13d ce70 f0bd c0a7 c93d
000000a0: f0d2 47bc 1acd db3d 900a 513c f80f d1bc
000000b0: f695 e2bd ec13 5c3d 0406 963d 9ad9 f8bd
000000c0: 2abd e33d 40e9 7d3c ec8c b5bd bef2 80bd
000000d0: 70a7 4cbd 1eba be3d 00c0 68bd 8ecd c83d
000000e0: da6b bd3d ec2b cb3d 98e0 e9bd b236 c8bd
000000f0: d019 0abc 007e 653a c860 a8bd 1013 85bc
00000100: c06b ff3c a0d1 063c ccf9 a53d 10f4 1dbc
00000110: b448 f03d 788c 94bd 3822 adbc e6eb b2bd
00000120: f26c ab3d ccee cd3d 1cf9 f93d e8c9 c23d
00000130: 0090 fab8 c0a1 94bd e0f8 dd3b 40e4 92bb
00000140: 3c6f c33d 58d1 4abd fc64 583d 6e30 9ebd
00000150: 7cd3 eebd 7c15 00bd e080 76bd 48a2 4dbd
00000160: 684f cb3d 60a6 2ebd 545a 63bd c824 1b3d
00000170: 9401 453d 60e0 ea3b 2845 b93d a8df 63bd
00000180: f879 bbbd 949a b03d f098 5a3d ca8b b43d
00000190: 9e70 d03d 8efa f1bd 9030 b9bc 3091 d8bc
000001a0: f870 633d 8cc0 5c3d 2002 333c 7a8b 83bd
000001b0: bc53 e73d fc18 473d 0035 f4bc be53 903d
000001c0: d629 983d 780b 433d aa48 84bd 8c93 e33d
000001d0: 2092 8d3b 40f9 17bd 9ac2 8f3d d8ef 82bd
000001e0: 320b d4bd 00ff cf3b 4ca5 94bd e4aa 15bd
000001f0: d621 ab3d e484 11bd b677 8d3d bcbf 52bd
00000200: fcc4 293d d6a6 9d3d 70ec a5bd 9843 793d
00000210: 70b8 ae3c 9294 9b3d 40a6 763b e014 323c
00000220: a020 23bd 2a3a 90bd 2c7b 453d de2b eabd
00000230: 9ce5 57bd 9074 ac3d f830 24bd c220 8fbd
00000240: b099 aa3c 801e f9bd 1860 833c 1619 fa3d
00000250: 0086 f23c e4d6 5a3d b2c8 ecbd 4465 41bd
00000260: de7b cf3d 6065 0c3c 705f 24bd b021 0cbc
00000270: b44c f73d 6e77 c63d bcce 983d 6a9d 8b3d
00000280: b0ed c23d ead0 fdbd 02dd a5bd e80d 61bd
00000290: 50a8 1cbd 40f7 653b a8d7 723d 7ed9 94bd
000002a0: e44d 993d ee78 863d fa2f 943d f6e9 e93d
000002b0: 74be 683d c4b7 dd3d 600a 5fbd 4428 073d
000002c0: b6b6 cc3d 10db 283d 1006 4bbd 24b1 e53d
000002d0: 7201 aa3d 3cc6 3cbd f202 e1bd 1ecc ed3d
000002e0: 0861 f73c 70b4 55bd aea3 ecbd 8079 33bb
000002f0: 46a6 f0bd c4a3 223d 807b 7abc ce67 ea3d
00000300: a24a cd3d 5052 2c3d e066 a7bd 2fbc 83bc
00000310: 1cd2 55bd 36ec bb3d 4c72 73bd 10a0 41bd
00000320: f7b0 2c3d 5e85 babd e327 6ebd d85b d5bc
00000330: d492 203d c03d 443d bbff b4bc 2dd7 cebd
00000340: 0fb0 fa3d 9f93 353d c6c3 9f3d 343d 0fbd
00000350: ecab 50bd 6ee4 90bd d699 4f3d 9455 f2bd
00000360: dbee ce3d c217 c8bd ee2b dd3d 0c95 fe3d
00000370: 745c 76bd f043 d4bd 7a35 063e 73b4 ca3b
00000380: 6882 80bc 80d6 bcbb c033 58bc 2ea9 de3d
00000390: 3d29 563c 0e6b c9bd f814 763d 306b 44bd
000003a0: c863 e6bc 9c27 b0bd 94e5 593d 2b41 0a3e
000003b0: e191 f23b 51cd 66bd 680f d3bd 00a4 17bc
000003c0: 58a4 81bd 18e4 c8bd 55c0 763d 1001 c93d
000003d0: dedd f53d 20d1 863b 2045 26bc 4c7d a83d
000003e0: 22a8 d1bc 30e1 c73c 5aa0 c33d 178b fc3d
000003f0: 1014 d2bd fa97 b5bd 80d4 27bd be4d b9bd
0.04506719 0.047202155 0.100447804 0.10254501 -0.05127582 -0.056675434 0.008852273 -0.03883934
0.117869586 -0.032857478 -0.07160866 0.017788365 -0.03058651 -0.09820098 0.017310947 -0.053737774
-0.11640115 -0.013038889 0.014079541 -0.033034027 0.118802026 0.08876084 -0.011955917 0.10611029
0.08077359 0.10436863 0.11754882 -0.09498431 -0.060047388 -0.016470894 -0.10735364 -0.12123291
-0.0723203 0.09448552 -0.057576194 0.0525672 -0.014509261 0.086700276 -0.11740266 0.09846449
-0.0121962875 0.107324794 0.012758866 -0.02552031 -0.11063759 0.053729936 0.07325366 -0.12150879
0.111200646 0.015497506 -0.08864769 -0.062962994 -0.04996437 0.09312843 -0.05682373 0.098048314
0.09249087 0.09920487 -0.11419791 -0.09776057 -0.008429006 0.0008754432 -0.082215846 -0.016244441
0.031179309 0.008228689 0.081042856 -0.009640709 0.11732617 -0.07253355 -0.02113448 -0.087364
0.08370389 0.100553125 0.12205717 0.09511167 -0.00011947751 -0.07257414 0.006774053 -0.004482776
0.09542701 -0.049516052 0.05283068 -0.07724081 -0.11661431 -0.03127049 -0.0601815 -0.05020359
0.09927255 -0.042639136 -0.055506065 0.037876874 0.04809721 0.007167861 0.09046394 -0.055633217
-0.09154123 0.086232334 0.05336851 0.08815725 0.1017773 -0.11815368 -0.022606164 -0.026436418
0.055527657 0.053894565 0.0109258 -0.064230874 0.11295268 0.04860781 -0.029810429 0.070472226
0.074298546 0.04761836 -0.06459172 0.11112127 0.004320398 -0.037102938 0.07019539 -0.06393403
-0.10353698 0.006347537 -0.072580904 -0.036539927 0.08356063 -0.035527125 0.06907599 -0.051452383
0.041447625 0.07697837 -0.081017375 0.060855478 0.021328181 0.07596697 0.0037635714 0.010869235
-0.039826035 -0.07042344 0.04821317 -0.11434148 -0.052709207 0.0842067 -0.040085763 -0.0698867
0.020825237 -0.121640205 0.016037032 0.12211816 0.029604912 0.053427592 -0.11561717 -0.047215715
0.10131048 0.008569092 -0.04013008 -0.008552954 0.12075177 0.09690748 0.074613065 0.06817134
0.095179915 -0.12393363 -0.080987945 -0.054944903 -0.038246453 0.003509 0.059287697 -0.07268046
0.074855596 0.06566034 0.07235713 0.11421578 0.056822255 0.10826066 -0.054453254 0.032997385
0.09995787 0.04122454 -0.04956633 0.112154275 0.08301057 -0.04608749 -0.1098689 0.11611198
0.030197635 -0.05217403 -0.11554657 -0.0027385652 -0.11750464 0.03970696 -0.015288234 0.114455804
0.10024001 0.042070687 -0.08173919 -0.016080944 -0.05220233 0.09175913 -0.059435174 -0.047271788
0.042160954 -0.09107469 -0.058143508 -0.026044771 0.039202526 0.047910452 -0.022094598 -0.10099635
0.12240612 0.044330236 0.07801013 -0.034970477 -0.050945207 -0.070748195 0.05068382 -0.11832729
0.10104152 -0.097701564 0.107993945 0.12430772 -0.060146764 -0.103645205 0.13106337 0.006186062
-0.015687183 -0.005762875 -0.013195932 0.10872112 0.013071355 -0.09834872 0.06007859 -0.047953784
-0.028123751 -0.08601305 0.05319746 0.13501422 0.007402644 -0.05634815 -0.10305673 -0.009255409
-0.06330174 -0.098091304 0.060242016 0.09814656 0.120052084 0.004114285 -0.010148317 0.082270235
-0.025592867 0.02439937 0.09552069 0.12331217 -0.10257733 -0.08866878 -0.04097414 -0.09048031

bias f4 [64]
00000000: bc0d 79bd 8c84 58bd b69c f7bd 29ea bebc
00000010: d1e9 a1bd 6e0d 90bd a10a 85bd 7943 b13d
00000020: 72a2 633d 7a64 fdbb 4dd0 2abd 0d02 b4bd
00000030: 2c36 e6bd 8845 87bd de17 813d b378 e33d
00000040: 3916 8b3b ebd4 ed3d 39d1 5f3d 548a 46bd
00000050: 72df 93bd 0da8 d93d 0f9c 163d c759 823c
00000060: 655a 8f3d 4c5d ecbd a01f 393d c853 71bc
00000070: c9ff 9c3d dc75 12bd c40d 4abd 6a7a fbbd
00000080: 44cb acbd 6c75 80bd af5d d13c 20e7 b2bb
00000090: 7044 95bc 926f 033e 8236 1a3d 3c03 4d3c
000000a0: 6edb e4bd 5b22 bc3d d8ab abbc dcf9 ed3c
000000b0: 188f 45bd 7841 31bd 1154 acbc 9d90 a93d
000000c0: 7e71 a6bd af4c 0e3d c5aa 21bd 7094 9a3c
000000d0: 1373 36bd 5633 a0bd 0075 1c3b dedb 9ebd
000000e0: 0c7d c0bd b9de 7d3d 802c da3d 7c74 b7bd
000000f0: 94ce c3bd f185 debd 6972 823c e4fc 78bd
-0.060804114 -0.05286078 -0.12090437 -0.023305016 -0.07905925 -0.070338115 -0.06496168 0.086554475
0.05557484 -0.007732925 -0.041702557 -0.08789454 -0.11240801 -0.06605059 0.063033804 0.11107006
0.0042445925 0.116128765 0.05464289 -0.048471764 -0.07220353 0.10627756 0.036769923 0.01591195
0.06999663 -0.115412325 0.045196176 -0.014729448 0.07665975 -0.03575693 -0.049329534 -0.12279208
-0.08437207 -0.062723964 0.025557367 -0.005459681 -0.01822111 0.1283553 0.03764964 0.012512978
-0.111746654 0.0918624 -0.020955965 0.029049806 -0.048232168 -0.043275326 -0.02103618 0.08279536
-0.08127116 0.0347411 -0.0394695 0.018869609 -0.044543337 -0.078222916 0.0023873448 -0.0775678
-0.09398851 0.061979983 0.10653019 -0.089577645 -0.09560886 -0.10865391 0.015923696 -0.06078805

mask f4 [64, 64]
00000000: 0000 803f 0000 0000 0000 0000 0000 0000
00000010: 0000 0000 0000 0000 0000 0000 0000 803f
00000020: 0000 0000 0000 0000 0000 0000 0000 0000
00000030: 0000 0000 0000 0000 0000 803f 0000 0000
00000040: 0000 0000 0000 0000 0000 0000 0000 0000
00000050: 0000 0000 0000 803f 0000 0000 0000 0000
00000060: 0000 0000 0000 0000 0000 0000 0000 0000
00000070: 0000 803f 0000 0000 0000 0000 0000 0000
00000080: 0000 0000 0000 0000 0000 0000 0000 803f
00000090: 0000 0000 0000 0000 0000 0000 0000 0000
000000a0: 0000 0000 0000 0000 0000 803f 0000 0000
000000b0: 0000 0000 0000 0000 0000 0000 0000 0000
000000c0: 0000 0000 0000 803f 0000 0000 0000 0000
000000d0: 0000 0000 0000 0000 0000 0000 0000 0000
000000e0: 0000 803f 0000 0000 0000 0000 0000 0000
000000f0: 0000 0000 0000 0000 0000 0000 0000 803f
00000100: 0000 803f 0000 803f 0000 0000 0000 0000
00000110: 0000 0000 0000 0000 0000 0000 0000 803f
00000120: 0000 803f 0000 0000 0000 0000 0000 0000
00000130: 0000 0000 0000 0000 0000 803f 0000 803f
00000140: 0000 0000 0000 0000 0000 0000 0000 0000
00000150: 0000 0000 0000 803f 0000 803f 0000 0000
00000160: 0000 0000 0000 0000 0000 0000 0000 0000
00000170: 0000 803f 0000 803f 0000 0000 0000 0000
00000180: 0000 0000 0000 0000 0000 0000 0000 803f
00000190: 0000 803f 0000 0000 0000 0000 0000 0000
000001a0: 0000 0000 0000 0000 0000 803f 0000 803f
000001b0: 0000 0000 0000 0000 0000 0000 0000 0000
000001c0: 0000 0000 0000 803f 0000 803f 0000 0000
000001d0: 0000 0000 0000 0000 0000 0000 0000 0000
000001e0: 0000 803f 0000 803f 0000 0000 0000 0000
000001f0: 0000 0000 0000 0000 0000 0000 0000 803f
00000200: 0000 803f 0000 803f 0000 803f 0000 0000
00000210: 0000 0000 0000 0000 0000 0000 0000 803f
00000220: 0000 803f 0000 803f 0000 0000 0000 0000
00000230: 0000 0000 0000 0000 0000 803f 0000 803f
00000240: 0000 803f 0000 0000 0000 0000 0000 0000
00000250: 0000 0000 0000 803f 0000 803f 0000 803f
00000260: 0000 0000 0000 0000 0000 0000 0000 0000
00000270: 0000 803f 0000 803f 0000 803f 0000 0000
00000280: 0000 0000 0000 0000 0000 0000 0000 803f
00000290: 0000 803f 0000 803f 0000 0000 0000 0000
000002a0: 0000 0000 0000 0000 0000 803f 0000 803f
000002b0: 0000 803f 0000 0000 0000 0000 0000 0000
000002c0: 0000 0000 0000 803f 0000 803f 0000 803f
000002d0: 0000 0000 0000 0000 0000 0000 0000 0000
000002e0: 0000 803f 0000 803f 0000 803f 0000 0000
000002f0: 0000 0000 0000 0000 0000 0000 0000 803f
00000300: 0000 803f 0000 803f 0000 803f 0000 803f
00000310: 0000 0000 0000 0000 0000 0000 0000 803f
00000320: 0000 803f 0000 803f 0000 803f 0000 0000
00000330: 0000 0000 0000 0000 0000 803f 0000 803f
00000340: 0000 803f 0000 803f 0000 0000 0000 0000
00000350: 0000 0000 0000 803f 0000 803f 0000 803f
00000360: 0000 803f 0000 0000 0000 0000 0000 0000
00000370: 0000 803f 0000 803f 0000 803f 0000 803f
00000380: 0000 0000 0000 0000 0000 0000 0000 803f
00000390: 0000 803f 0000 803f 0000 803f 0000 0000
000003a0: 0000 0000 0000 0000 0000 803f 0000 803f
000003b0: 0000 803f 0000 803f 0000 0000 0000 0000
000003c0: 0000 0000 0000 803f 0000 803f 0000 803f
000003d0: 0000 803f 0000 0000 0000 0000 0000 0000
000003e0: 0000 803f 0000 803f 0000 803f 0000 803f
000003f0: 0000 0000 0000 0000 0000 0000 0000 803f
1.0 0.0 0.0 0.0 0.0 0.0 0.0 1.0
0.0 0.0 0.0 0.0 0.0 0.0 1.0 0.0
0.0 0.0 0.0 0.0 0.0 1.0 0.0 0.0
0.0 0.0 0.0 0.0 1.0 0.0 0.0 0.0
0.0 0.0 0.0 1.0 0.0 0.0 0.0 0.0
0.0 0.0 1.0 0.0 0.0 0.0 0.0 0.0
0.0 1.0 0.0 0.0 0.0 0.0 0.0 0.0
1.0 0.0 0.0 0.0 0.0 0.0 0.0 1.0
1.0 1.0 0.0 0.0 0.0 0.0 0.0 1.0
1.0 0.0 0.0 0.0 0.0 0.0 1.0 1.0
0.0 0.0 0.0 0.0 0.0 1.0 1.0 0.0
0.0 0.0 0.0 0.0 1.0 1.0 0.0 0.0
0.0 0.0 0.0 1.0 1.0 0.0 0.0 0.0
0.0 0.0 1.0 1.0 0.0 0.0 0.0 0.0
0.0 1.0 1.0 0.0 0.0 0.0 0.0 0.0
1.0 1.0 0.0 0.0 0.0 0.0 0.0 1.0
1.0 1.0 1.0 0.0 0.0 0.0 0.0 1.0
1.0 1.0 0.0 0.0 0.0 0.0 1.0 1.0
1.0 0.0 0.0 0.0 0.0 1.0 1.0 1.0
0.0 0.0 0.0 0.0 1.0 1.0 1.0 0.0
0.0 0.0 0.0 1.0 1.0 1.0 0.0 0.0
0.0 0.0 1.0 1.0 1.0 0.0 0.0 0.0
0.0 1.0 1.0 1.0 0.0 0.0 0.0 0.0
1.0 1.0 1.0 0.0 0.0 0.0 0.0 1.0
1.0 1.0 1.0 1.0 0.0 0.0 0.0 1.0
1.0 1.0 1.0 0.0 0.0 0.0 1.0 1.0
1.0 1.0 0.0 0.0 0.0 1.0 1.0 1.0
1.0 0.0 0.0 0.0 1.0 1.0 1.0 1.0
0.0 0.0 0.0 1.0 1.0 1.0 1.0 0.0
0.0 0.0 1.0 1.0 1.0 1.0 0.0 0.0
0.0 1.0 1.0 1.0 1.0 0.0 0.0 0.0
1.0 1.0 1.0 1.0 0.0 0.0 0.0 1.0

weight f4 [64, 64]
00000000: 198f 55ba 5d47 523a ecd8 5c3a d255 793a
00000010: 28a6 523a 84d8 2b3a f0d7 dcb9 2bae 7ebc
00000020: c3ff 5d3a 11bd 18ba f68e be39 d274 d2b9
00000030: c5f4 a539 0ffd 8639 3e09 8fbc c1ce 6eb9
00000040: faaa 0839 d674 2b3a ab2d 4ab9 c95a 47ba
00000050: 30bb 5e3a 4673 81bc ee20 07b9 8e9e 63ba
00000060: c1eb 5b3a b9e2 b8b9 ae17 8338 cf97 44ba
00000070: 25ee 52bc a6c1 b139 d680 f3b8 0968 aa39
00000080: f4bb 93b9 cdea b439 bbf5 f639 bd7c 7339
00000090: 3e3a 7538 0bc9 153a 67fa b4b9 bbd7 313a
000000a0: 30a9 323a eecf 503a 90da c4b8 ed56 80ba
000000b0: 258a cb39 0ff7 fcb9 cd82 56ba bd8a 70ba
000000c0: 5f30 433a 385c 8fbc 80e7 293a 6d1f aa38
000000d0: 342f cbb9 ec3d 09ba de1e 9c39 40a5 e539
000000e0: e26f 373a 44ad 99b9 c3eb cdb9 71b1 d239
000000f0: 5630 1b3a 2eb2 71b8 7bd1 1a3a 80f4 79ba
00000100: fc69 2f38 7111 17b9 2413 e239 3ebf 433a
00000110: 2aee d939 cb37 85b9 2aa0 34b9 bdf5 82bc
00000120: 61f6 84bc b751 81b9 b71f b539 29bc 063a
00000130: b7bb ba38 447b 9cb8 b0b5 88bc c5e8 8dbc
00000140: 1b66 393a 4225 203a 8169 113a 966f 683a
00000150: da7b 693a 50de 8abc 53a9 89bc a239 b639
00000160: d007 edb8 11c0 4639 d461 803a 3ab2 ba39
00000170: bd7b 57bc dc21 1c39 ecd2 16ba 1526 243a
00000180: 3a9c c839 a6e7 b6b9 09f4 103a d481 ddb9
00000190: 1fd3 8bb9 eeb1 4f3a 36f2 b3b9 8a16 0eba
000001a0: 0164 253a 3e4f 0d3a 346f 433a adf2 8bbc
000001b0: b940 7eba 38a3 2eba 90aa 373a d041 ddb9
000001c0: 23fb d7b8 8fd0 8bbc f787 8ebb 7163 a939
000001d0: 8870 453a fa36 8639 3a50 31ba 8e70 4d3a
000001e0: f039 2bba e856 87bc 0f8d b4b7 119b 65ba
000001f0: b580 f038 8976 81ba dc71 1a3a 8c18 6e3a
00000200: 23ad a4b9 96ed a4b9 fca9 8639 212d 04ba
00000210: 699a 753a 63f4 1339 7dbf 8e36 160c 813c
00000220: 61ea 8b3c e5a2 813c d042 6eba a764 73ba
00000230: 4ab4 45b9 cb84 20ba 1bc4 8c3c 951b 8e3c
00000240: 751f 803c 0fc1 0dba f00f ff38 c3dd e6b8
00000250: 1325 a5b9 67d0 803c f111 8d3c dbb3 853c
00000260: 1133 193a 6111 6ab9 ab41 38ba f206 7fba
00000270: 2c74 463c bf47 36b9 657b aab7 86e3 e438
00000280: 3a6c 2d3a 3879 393a 82d2 303a c379 65b9
00000290: 40da 32ba f630 843c 8eb7 9439 96ff 8139
000002a0: 2106 c6b9 73d8 d5b9 69db 99b9 4ed2 843c
000002b0: cd59 03ba 8c3e b139 980a 473a 8ad1 4fb9
000002c0: b79b a8b9 6159 823c 125e 513b 4aa6 5c3c
000002d0: 111d 103a 5d18 6eba eab8 083a 03d9 773a
000002e0: e8fd d139 4a7b 803c 2f83 393b c3a5 0c39
000002f0: b928 053a 73da 03ba 242c 793a e62a 323a
00000300: 4a66 5a3a 4a94 e8b8 13b9 e6b9 da3c 89bc
00000310: c164 fdb9 f0cf 593a 3095 8a39 6787 83bc
00000320: 0db4 8abc e3c6 8bbc f120 28ba 6d9c 1dba
00000330: ee1b 3aba 4fa2 dc38 3af8 82bc cfda 82bc
00000340: 1319 88bc 8a1e 8dbc 36d8 0aba e0ff 173a
00000350: 36ce 79b9 5386 8dbc c649 88bc 3c0b 8cbc
00000360: 983e dcbb 9a4a 5dba bf91 44ba 09de 7cba
00000370: a950 58bc 57e5 29ba 42b0 fc38 3851 ef38
00000380: a6f4 28ba 8add 79b9 bfe3 9e39 575d 493a
00000390: e097 233a e6e4 8fbc 90dd 82bc 4616 4139
000003a0: f8e0 4cba 6765 2bba 21ea 603a 75d7 82bc
000003b0: 2bb7 10b8 3893 143a 614f 8139 7a4f 5cba
000003c0: 4219 7aba d0ef 7ebc 3427 93bb 1910 53bc
000003d0: f374 c0ba 1f76 67ba 94b0 82b8 0116 56ba
000003e0: 3ad5 293a ad37 85bc f22e 0ebb 1387 44b9
000003f0: b512 cc39 2df4 0cba 8046 6bba ee96 713a
-0.00081466284 0.0008021498 0.0008424658 0.00095113844 0.00080356235 0.00065553957 -0.00042122556 -0.015544455
0.00084685924 -0.0005826513 0.00036346138 -0.0004014136 0.0003165362 0.00025747015 -0.017460462 -0.0002277447
0.00013033664 0.0006540542 -0.00019281234 -0.00076047756 0.0008496521 -0.015802037 -0.0001288687 -0.0008682989
0.0008389317 -0.00035264136 6.2509775e-05 -0.0007499428 -0.012874161 0.0003390435 -0.000116111405 0.0003250244
-0.0002817806 0.00034507216 0.0004710386 0.00023220755 5.8466794e-05 0.00057138567 -0.0003451884 0.00067841605
0.0006815372 0.0007965554 -9.386719e-05 -0.0009791531 0.00038822103 -0.00048249259 -0.0008182943 -0.0009175947
0.00074458675 -0.017500028 0.00064813346 8.112085e-05 -0.00038754346 -0.00052353623 0.00029777637 0.00043801405
0.0006997568 -0.00029311527 -0.00039276303 0.00040186525 0.00059199834 -5.762482e-05 0.0005905849 -0.00095350295
4.1821957e-05 -0.0001440698 0.0004312034 0.0007467157 0.0004156691 -0.00025409306 -0.00017225803 -0.015986318
-0.016230764 -0.0002466568 0.0003454664 0.00051397324 8.904136e-05 -7.46162e-05 -0.016688198 -0.017322907
0.0007072405 0.00061090675 0.00055470323 0.0008866725 0.00089067 -0.01695171 -0.016804373 0.00034756685
-0.00011302496 0.00018954302 0.000979478 0.00035609474 -0.01315206 0.00014889933 -0.00057534757 0.0006261778
0.0003826337 -0.00034886337 0.0005529528 -0.00042249134 -0.00026669443 0.0007922937 -0.00034322002 -0.00054202287
0.0006309152 0.0005390531 0.000745523 -0.01708349 -0.00096989755 -0.0006661895 0.0007006312 -0.0004220144
-0.00010298777 -0.017067222 -0.0043497044 0.00032308282 0.0007531722 0.00025599432 -0.0006763969 0.00078369013
-0.00065317657 -0.016520932 -2.1523358e-05 -0.00087587634 0.00011468065 -0.0009877245 0.00058916 0.0009082637
-0.00031409514 -0.00031457533 0.0002568512 -0.0005042125 0.0009369017 0.00014110054 4.254222e-06 0.015752833
0.017079534 0.015824744 -0.00090889353 -0.0009284713 -0.00018854547 -0.00061233033 0.017183354 0.017347137
0.01564 -0.0005407491 0.00012162316 -0.00011008561 -0.00031498875 0.015724374 0.01722047 0.016321113
0.00058440963 -0.00022322453 -0.0007028828 -0.0009728513 0.0121126585 -0.000173836 -2.032304e-05 0.00010914267
0.0006615553 0.0007075253 0.00067452353 -0.00021884502 -0.0006822683 0.016136628 0.0002836552 0.00024795224
-0.0003777007 -0.00040787793 -0.00029345907 0.016213562 -0.0005010635 0.00033806672 0.0007592826 -0.00019819118
-0.00032159474 0.01591176 0.003194694 0.013467381 0.00054974953 -0.000908261 0.00052155426 0.00094546395
0.0004005276 0.015683789 0.0028306951 0.00013413191 0.00050796155 -0.0005029805 0.00095051737 0.00067965535
0.00083312823 -0.00011090243 -0.0004400691 -0.01675265 -0.00048330988 0.0008308878 0.00026432564 -0.016055776
-0.016931558 -0.01706261 -0.00064136 -0.0006012384 -0.0007099499 0.0001052065 -0.015987504 -0.015973477
-0.016613519 -0.017226476 -0.00052965 0.0005798321 -0.0002382331 -0.017275965 -0.01663674 -0.0170952
-0.006721329 -0.00084415975 -0.00074985245 -0.0009646123 -0.013202825 -0.00064810127 0.00012049127 0.00011411536
-0.0006445147 -0.0002382902 0.00030305792 0.000768145 0.00062405877 -0.017565202 -0.01597479 0.00018414212
-0.00078155054 -0.00065382425 0.000857981 -0.015971879 -3.4502864e-05 0.0005667689 0.0002466394 -0.0008404177
-0.0009540507 -0.015560105 -0.0044907574 -0.012882256 -0.0014683291 -0.0008829552 -6.231773e-05 -0.0008166731
0.00064786116 -0.0162619 -0.0021695462 -0.00018742336 0.0003892385 -0.0005376961 -0.0008975044 0.00092159107

bias f4 [64]
00000000: 6603 89bc 9f6b 89bc 1db7 8a3c 2413 86bc
00000010: 011d 743c 8406 81bc 5911 863c 188d 88bc
00000020: 6463 51bc bc74 7d3c 5d25 6ebc d3ba 86bc
00000030: a808 643c e197 733c da94 3dbc ee01 70bc
00000040: 595f 7ebc 8b7a 7abc f15e 7e3c 66ba 8b3c
00000050: 9910 83bc 1dfb 83bc 0060 863c 2232 823c
00000060: 7dcb 823c 8f37 653c 2c27 7bbc 4a7e 783c
00000070: 3c67 5e3c 02db 8abc e047 65bb 9df8 2fbb
00000080: 7927 7d3c 978a 83bc e482 7fbc c2f9 803c
00000090: 48bf 833c 9904 65bc a30d 85bc c0b5 7abc
000000a0: 7302 363b 50f0 85bc 5c49 8d3c 23c5 853c
000000b0: 3ab8 60bc 85cf 1bbc 85c1 76bc 94d1 82bc
000000c0: ba86 78bc bde5 7e3c 57ac 7d3c 182f 193c
000000d0: 21ed d7ba 0dea 653c 637a 853c 128a 7f3c
000000e0: 7db0 7f3c 827f dd3b 0163 67bc 4b15 7ebc
000000f0: 1694 823c 3b69 373c ba9b 8c3c 4eb9 893c
-0.016725253 -0.01677495 0.016933018 -0.016366549 0.014899493 -0.015750177 0.016365694 -0.016668841
-0.012780044 0.015469726 -0.014535275 -0.016446507 0.013918079 0.014867754 -0.0115711335 -0.014648898
-0.015525662 -0.015288006 0.0155255655 0.017056655 -0.015999125 -0.016110951 0.016403198 0.015893046
0.015966171 0.013990297 -0.0153291635 0.015166828 0.013574418 -0.016950134 -0.0034985468 -0.0026851066
0.015451306 -0.016057296 -0.015595172 0.015744094 0.016082421 -0.013978147 -0.016241854 -0.015302122
0.0027772456 -0.016349941 0.017246895 0.016329354 -0.013715798 -0.009509926 -0.015060787 -0.015969075
-0.01516884 0.015557704 0.015482984 0.009349607 -0.0016473868 0.014032853 0.01629371 0.015596883
0.015606043 0.006759585 -0.014122725 -0.015508006 0.015939754 0.0111945225 0.0171641 0.016811993

mask f4 [64, 64]
00000000: 0000 803f 0000 0000 0000 0000 0000 0000
00000010: 0000 0000 0000 0000 0000 0000 0000 803f
00000020: 0000 0000 0000 0000 0000 0000 0000 0000
00000030: 0000 0000 0000 0000 0000 803f 0000 0000
00000040: 0000 0000 0000 0000 0000 0000 0000 0000
00000050: 0000 0000 0000 803f 0000 0000 0000 0000
00000060: 0000 0000 0000 0000 0000 0000 0000 0000
00000070: 0000 803f 0000 0000 0000 0000 0000 0000
00000080: 0000 0000 0000 0000 0000 0000 0000 803f
00000090: 0000 0000 0000 0000 0000 0000 0000 0000
000000a0: 0000 0000 0000 0000 0000 803f 0000 0000
000000b0: 0000 0000 0000 0000 0000 0000 0000 0000
000000c0: 0000 0000 0000 803f 0000 0000 0000 0000
000000d0: 0000 0000 0000 0000 0000 0000 0000 0000
000000e0: 0000 803f 0000 0000 0000 0000 0000 0000
000000f0: 0000 0000 0000 0000 0000 0000 0000 803f
00000100: 0000 803f 0000 803f 0000 0000 0000 0000
00000110: 0000 0000 0000 0000 0000 0000 0000 803f
00000120: 0000 803f 0000 0000 0000 0000 0000 0000
00000130: 0000 0000 0000 0000 0000 803f 0000 803f
00000140: 0000 0000 0000 0000 0000 0000 0000 0000
00000150: 0000 0000 0000 803f 0000 803f 0000 0000
00000160: 0000 0000 0000 0000 0000 0000 0000 0000
00000170: 0000 803f 0000 803f 0000 0000 0000 0000
00000180: 0000 0000 0000 0000 0000 0000 0000 803f
00000190: 0000 803f 0000 0000 0000 0000 0000 0000
000001a0: 0000 0000 0000 0000 0000 803f 0000 803f
000001b0: 0000 0000 0000 0000 0000 0000 0000 0000
000001c0: 0000 0000 0000 803f 0000 803f 0000 0000
000001d0: 0000 0000 0000 0000 0000 0000 0000 0000
000001e0: 0000 803f 0000 803f 0000 0000 0000 0000
000001f0: 0000 0000 0000 0000 0000 0000 0000 803f
00000200: 0000 803f 0000 803f 0000 803f 0000 0000
00000210: 0000 0000 0000 0000 0000 0000 0000 803f
00000220: 0000 803f 0000 803f 0000 0000 0000 0000
00000230: 0000 0000 0000 0000 0000 803f 0000 803f
00000240: 0000 803f 0000 0000 0000 0000 0000 0000
00000250: 0000 0000 0000 803f 0000 803f 0000 803f
00000260: 0000 0000 0000 0000 0000 0000 0000 0000
00000270: 0000 803f 0000 803f 0000 803f 0000 0000
00000280: 0000 0000 0000 0000 0000 0000 0000 803f
00000290: 0000 803f 0000 803f 0000 0000 0000 0000
000002a0: 0000 0000 0000 0000 0000 803f 0000 803f
000002b0: 0000 803f 0000 0000 0000 0000 0000 0000
000002c0: 0000 0000 0000 803f 0000 803f 0000 803f
000002d0: 0000 0000 0000 0000 0000 0000 0000 0000
000002e0: 0000 803f 0000 803f 0000 803f 0000 0000
000002f0: 0000 0000 0000 0000 0000 0000 0000 803f
00000300: 0000 803f 0000 803f 0000 803f 0000 803f
00000310: 0000 0000 0000 0000 0000 0000 0000 803f
00000320: 0000 803f 0000 803f 0000 803f 0000 0000
00000330: 0000 0000 0000 0000 0000 803f 0000 803f
00000340: 0000 803f 0000 803f 0000 0000 0000 0000
00000350: 0000 0000 0000 803f 0000 803f 0000 803f
00000360: 0000 803f 0000 0000 0000 0000 0000 0000
00000370: 0000 803f 0000 803f 0000 803f 0000 803f
00000380: 0000 0000 0000 0000 0000 0000 0000 803f
00000390: 0000 803f 0000 803f 0000 803f 0000 0000
000003a0: 0000 0000 0000 0000 0000 803f 0000 803f
000003b0: 0000 803f 0000 803f 0000 0000 0000 0000
000003c0: 0000 0000 0000 803f 0000 803f 0000 803f
000003d0: 0000 803f 0000 0000 0000 0000 0000 0000
000003e0: 0000 803f 0000 803f 0000 803f 0000 803f
000003f0: 0000 0000 0000 0000 0000 0000 0000 803f
1.0 0.0 0.0 0.0 0.0 0.0 0.0 1.0
0.0 0.0 0.0 0.0 0.0 0.0 1.0 0.0
0.0 0.0 0.0 0.0 0.0 1.0 0.0 0.0
0.0 0.0 0.0 0.0 1.0 0.0 0.0 0.0
0.0 0.0 0.0 1.0 0.0 0.0 0.0 0.0
0.0 0.0 1.0 0.0 0.0 0.0 0.0 0.0
0.0 1.0 0.0 0.0 0.0 0.0 0.0 0.0
1.0 0.0 0.0 0.0 0.0 0.0 0.0 1.0
1.0 1.0 0.0 0.0 0.0 0.0 0.0 1.0
1.0 0.0 0.0 0.0 0.0 0.0 1.0 1.0
0.0 0.0 0.0 0.0 0.0 1.0 1.0 0.0
0.0 0.0 0.0 0.0 1.0 1.0 0.0 0.0
0.0 0.0 0.0 1.0 1.0 0.0 0.0 0.0
0.0 0.0 1.0 1.0 0.0 0.0 0.0 0.0
0.0 1.0 1.0 0.0 0.0 0.0 0.0 0.0
1.0 1.0 0.0 0.0 0.0 0.0 0.0 1.0
1.0 1.0 1.0 0.0 0.0 0.0 0.0 1.0
1.0 1.0 0.0 0.0 0.0 0.0 1.0 1.0
1.0 0.0 0.0 0.0 0.0 1.0 1.0 1.0
0.0 0.0 0.0 0.0 1.0 1.0 1.0 0.0
0.0 0.0 0.0 1.0 1.0 1.0 0.0 0.0
0.0 0.0 1.0 1.0 1.0 0.0 0.0 0.0
0.0 1.0 1.0 1.0 0.0 0.0 0.0 0.0
1.0 1.0 1.0 0.0 0.0 0.0 0.0 1.0
1.0 1.0 1.0 1.0 0.0 0.0 0.0 1.0
1.0 1.0 1.0 0.0 0.0 0.0 1.0 1.0
1.0 1.0 0.0 0.0 0.0 1.0 1.0 1.0
1.0 0.0 0.0 0.0 1.0 1.0 1.0 1.0
0.0 0.0 0.0 1.0 1.0 1.0 1.0 0.0
0.0 0.0 1.0 1.0 1.0 1.0 0.0 0.0
0.0 1.0 1.0 1.0 1.0 0.0 0.0 0.0
1.0 1.0 1.0 1.0 0.0 0.0 0.0 1.0

weight f4 [64, 64]
00000000: 0067 e23b ccd4 083d 4014 b3bb 048a b43d
00000010: 1c2e 2c3d 0849 a7bc ca68 ae3d a220 e2bd
00000020: f09b 58bd b643 ffbd f21c dcbd 1c6d 0bbd
00000030: 488e ebbc 2212 ac3d 5440 1a3d 9809 b43c
00000040: 3479 bc3d 180e f9bd 68ba a33d c0dd 9abc
00000050: e059 4c3d 363d 93bd a4a7 003d 008f 59bd
00000060: 2887 a33c 444a 983d 0001 97bd 00d9 5a3a
00000070: ac3c 5b3d 380a 8f3c 003c fcbb 944b 6fbd
00000080: b89d 04bd 6ad7 ee3d b82a 8e3d 9687 ecbd
00000090: 387d e63d 6884 23bd f449 7ebd 483b 7abd
000000a0: 0042 0d3a 3ec0 cc3d 7034 ef3c ecbd 09bd
000000b0: 18f2 fbbd 700f cd3d b892 b93c f828 f23c
000000c0: 245f c13d f0b1 da3d 4ebf d3bd 0076 b4bc
000000d0: e014 d13d 88fc 983c bc5f bc3d dc64 57bd
000000e0: 1c23 4abd fe31 8abd 0683 8bbd 28af 8fbd
000000f0: cce2 76bd 9ae8 f2bd f49a d13d d454 e63d
00000100: 5474 30bd 4095 7ebc 74a8 d13d c05c 52bd
00000110: e448 acbd a4ef a4bd c895 1abd a26b 833d
00000120: 857f 423c 00c4 fa39 08ba 15bd a085 8d3d
00000130: 801e 233d 2ca3 ee3d c4df 463d 7581 8abc
00000140: a4aa 43bd f0c2 f2bd 70da 603d 06f8 cc3d
00000150: e4f1 4f3d d45b 0f3d 8de3 233d fc2d 733d
00000160: 5205 d33d d63d c0bd 9c5c 01bd 8045 bc3a
00000170: 4c25 44bd 8b5b 3e3d deb4 e6bd 983a e33c
00000180: d023 41bc 3051 8e3d 00cf 4fba 1b41 ad3d
00000190: 392f bcbd 7abc b3bd 7094 37bc b2dd d63d
000001a0: defb cdbd 98b3 bc3d d11c 523d 3ad5 993d
000001b0: 08fe 4fbd 40c4 863d a028 1f3d e0bf e23b
000001c0: c093 e0bd cc9f 7d3d fe80 533d 5417 a2bd
000001d0: 1283 bb3d c407 2a3d 0a1d 843d 288a 57bd
000001e0: ec41 a9bd 9247 cbbd f8c9 dbbc a822 29bd
000001f0: 74e4 09bd d449 1c3d a41f 7dbd 1c1b 70bd
00000200: 7895 8ebd c477 82bd 0063 5f3b 56f4 f0bd
00000210: ca24 f13d 88f9 97bd 5868 d63d ce9f e63d
00000220: 8ac1 9e3d a009 393d becc ffbd 68c5 883d
00000230: caaa 893d 38cb 54bd 0a7e d3bd 8a48 d1bd
00000240: 48f2 a8bc c601 b83d 60f2 953c f499 6a3d
00000250: 982e bb3d 4ca9 83bd 1841 9abc b8db 003d
00000260: 82dd 803d c848 9a3d ca8f e9bd d493 3e3d
00000270: 800e 7f3b fcb3 12bd 06b4 a3bd e0b2 d13b
00000280: e813 853d 0000 beb6 d06e b4bd 9891 313d
00000290: 5a95 efbd a03e 0b3c f0d6 123c 7c85 973d
000002a0: 02f6 b23d 806e f93d 7acc c3bd 94a3 3fbd
000002b0: 2c6f 5f3d a8a2 46bd ec6a b4bd 644e d5bd
000002c0: 7418 1b3d 5c19 51bd 62ed b0bd 6cc7 1b3d
000002d0: 4854 c0bd fac1 863d 9a25 a0bd 402b 2d3d
000002e0: a803 b8bc 2a72 fb3d 58ef 8a3c 50d5 8ebd
000002f0: 9409 a0bd 9c21 0fbd 0023 473a 0cc3 63bd
00000300: 8af9 fc3d b036 52bd fdd4 56bd 4a2d e53d
00000310: 208b a7bd fc04 95bd c874 adbc 40fb 93bc
00000320: 7ff7 d73d 5b53 3d3d 837e 37bd 50c6 2a3c
00000330: 6ad5 8cbd dca4 b9bd d65e 9b3d a26c 90bb
00000340: 20ad 583d c3cc bebd c057 8c3b 5482 95bd
00000350: 68ca 83bc cccf 5e3d 5f27 053e 80aa 713c
00000360: 9ae6 083e de7c d13d 4c9d 28bd eee8 f63d
00000370: 8086 96bd 5cfb b6bd 7668 9ebd 360e 9c3d
00000380: 5022 0cbc dc17 a13d cec0 bcbd 27fc 1cbd
00000390: 2af9 c13c 4b25 3a3a 77ee 983d e2f4 8d3d
000003a0: b2d7 973d c014 3cbb f63f 51bc bf8c 6dbd
000003b0: cdf1 ddbd 63c4 ce3d 08cb 99bc e0a2 67bd
000003c0: 9209 93bd 2041 51bc 1392 263d c0cf 043d
000003d0: 51fc b5bc f4ac 333d 8880 11bd 503a ea3c
000003e0: 9f9f 813c e43d 1abd 3d17 df3d 0c58 87bd
000003f0: c05c 4c3d b887 eb3d 7063 4f3d 189e c53d
0.006909251 0.033406064 -0.0054650605 0.08815387 0.04203616 -0.020420566 0.08516081 -0.110413805
-0.05288309 -0.12464087 -0.107477084 -0.0340396 -0.028754368 0.08401896 0.037659004 0.02197723
0.09202805 -0.12160891 0.079945385 -0.018904567 0.0498904 -0.071894094 0.031409875 -0.05311489
0.019961908 0.0743604 -0.073732376 0.00083483756 0.053524658 0.017460927 -0.0076975822 -0.058421686
-0.032376975 0.11662181 0.06941742 -0.115492985 0.11254352 -0.039921194 -0.062082246 -0.06109169
0.0005388558 0.09997605 0.029199809 -0.03362839 -0.12302035 0.1001271 0.022652969 0.029560551
0.09441975 0.1067847 -0.10339223 -0.022028923 0.1020906 0.018675104 0.091979474 -0.05258642
-0.04934989 -0.067478165 -0.068121 -0.0701583 -0.060274884 -0.118607715 0.10234633 0.112466484
-0.04307969 -0.015538514 0.10237208 -0.051357985 -0.0841234 -0.0805352 -0.0377405 0.06417014
0.011871223 0.00047829747 -0.036554366 0.069102526 0.03982401 0.11652216 0.048553243 -0.016907433
-0.047770157 -0.118535876 0.05489582 0.10008244 0.050767794 0.034999683 0.04001193 0.059370026
0.10303749 -0.09386794 -0.03158246 0.0014363974 -0.04788713 0.04647402 -0.112649664 0.0277379
-0.0117883235 0.06949079 -0.0007927269 0.084596835 -0.091886945 -0.087761834 -0.011204824 0.10491504
-0.100578055 0.09213942 0.051297013 0.07511373 -0.050779372 0.065804005 0.038857102 0.006919846
-0.10965681 0.061919972 0.05163669 -0.07914606 0.09155859 0.041511312 0.06450851 -0.05262199
-0.08264527 -0.0992576 -0.026829705 -0.041292816 -0.033665136 0.038156345 -0.061797753 -0.058619604
-0.06962103 -0.063705 0.0034086108 -0.117653534 0.11774595 -0.07420641 0.10469121 0.11260949
0.077517584 0.045175195 -0.12490223 0.06678277 0.067220286 -0.051951617 -0.103267744 -0.10218914
-0.020623341 0.08984713 0.01830405 0.057275727 0.091397464 -0.06428775 -0.018829867 0.03145954
0.06292249 0.07533413 -0.11404379 0.0465277 0.0038918555 -0.035816178 -0.07993321 0.0063994974
0.064979374 -5.6624413e-06 -0.08810198 0.04335174 -0.116984084 0.008498818 0.008962378 0.07398507
0.087383285 0.12179279 -0.09560485 -0.04678686 0.05454938 -0.048494965 -0.08809456 -0.104153425
0.037865117 -0.051049575 -0.08639027 0.03803198 -0.093910754 0.06579967 -0.07819672 0.042277575
-0.022462681 0.122776344 0.016959831 -0.0697428 -0.07814327 -0.03494416 0.0007596463 -0.055605933
0.12352283 -0.051321685 -0.052449215 0.11190279 -0.08180833 -0.07276341 -0.02117385 -0.018064141
0.10545253 0.046222072 -0.044798385 0.010423258 -0.06876643 -0.090646476 0.07586448 -0.0044074813
0.05289948 -0.09316399 0.0042829216 -0.07300249 -0.016087726 0.05439739 0.130033 0.014750123
0.13369218 0.10228895 -0.041165635 0.120561466 -0.073498726 -0.08934662 -0.07734768 0.07619898
-0.008553103 0.07865879 -0.09216462 -0.03832641 0.023678381 0.0007100894 0.074673586 0.06931473
0.074141875 -0.0028698891 -0.012771597 -0.057995554 -0.108371355 0.100960515 -0.01877357 -0.056551814
-0.0717956 -0.012771875 0.04066665 0.03242469 -0.02221504 0.043866113 -0.035522968 0.028592259
0.015823184 -0.03765668 0.10893104 -0.066085905 0.04989314 0.11500496 0.05063194 0.096492946

bias f4 [64]
00000000: 0ede 88bd bac6 8dbd ee94 c6bd a36f 9bbd
00000010: 4deb eb3d 7c52 d1bd 5d4c be3d 352e e53c
00000020: 56fd 733d a6f5 093e f553 ea3d 9c6c 0ebd
00000030: 2cf3 d0bd 07d7 673c ade8 1b3d 2253 0b3e
00000040: ca93 c43c feec b63d 4df8 0a3e 91c6 303d
00000050: ae0e 443d a999 b5bc 1492 cf3d c42a 653d
00000060: 6d8a 7b3d 4b61 8e3d c988 bf3d 7154 e03d
00000070: 2d8d 023d 4f8c c43d 16d8 08bc 6c94 d2bd
00000080: d8e3 00bd 44d3 053e eaa1 13bd dc40 b53d
00000090: 0534 a4bd a906 933c 87da 0d3e 20f9 c6bd
000000a0: 8745 03bd 108b ffbc 98fa f7bc 4720 f93d
000000b0: 085a e9bd 43f1 fe3d 6af7 b73d d450 8dbd
000000c0: 1bbb b43d c8b0 0fbd 8ef7 8d3d 0547 9abd
000000d0: 9e78 e4bd afad 953c ede7 8cbc 76de 86bd
000000e0: a4b2 953d 62d8 da3d 60ef 87bb cd7c b8bc
000000f0: 0550 823c fdbf 813c 9f0f 91bd 7030 04bd
-0.066829786 -0.0692267 -0.09696375 -0.075896524 0.115194894 -0.10220811 0.09291909 0.027976135
0.05956777 0.13472614 0.11441795 -0.034771547 -0.10202631 0.014150388 0.038063694 0.13605931
0.023996253 0.089319214 0.13571282 0.043158118 0.047865562 -0.022167997 0.10135284 0.055948988
0.06141131 0.06952151 0.093522616 0.10953606 0.031872917 0.09597074 -0.0083523 -0.102822155
-0.03146729 0.13068873 -0.036043085 0.088502616 -0.080177344 0.017947512 0.13852893 -0.097154856
-0.03204873 -0.03119424 -0.03027086 0.121643595 -0.11394125 0.12448361 0.08982737 -0.06900182
0.0882475 -0.0350807 0.06931983 -0.07533077 -0.111558184 0.018271295 -0.017200435 -0.065854
0.073094636 0.10685803 -0.004148409 -0.022520447 0.015907297 0.015838617 -0.070830576 -0.032272756

mask f4 [64, 64]
00000000: 0000 803f 0000 0000 0000 0000 0000 0000
00000010: 0000 0000 0000 0000 0000 0000 0000 803f
00000020: 0000 0000 0000 0000 0000 0000 0000 0000
00000030: 0000 0000 0000 0000 0000 803f 0000 0000
00000040: 0000 0000 0000 0000 0000 0000 0000 0000
00000050: 0000 0000 0000 803f 0000 0000 0000 0000
00000060: 0000 0000 0000 0000 0000 0000 0000 0000
00000070: 0000 803f 0000 0000 0000 0000 0000 0000
00000080: 0000 0000 0000 0000 0000 0000 0000 803f
00000090: 0000 0000 0000 0000 0000 0000 0000 0000
000000a0: 0000 0000 0000 0000 0000 803f 0000 0000
000000b0: 0000 0000 0000 0000 0000 0000 0000 0000
000000c0: 0000 0000 0000 803f 0000 0000 0000 0000
000000d0: 0000 0000 0000 0000 0000 0000 0000 0000
000000e0: 0000 803f 0000 0000 0000 0000 0000 0000
000000f0: 0000 0000 0000 0000 0000 0000 0000 803f
00000100: 0000 803f 0000 803f 0000 0000 0000 0000
00000110: 0000 0000 0000 0000 0000 0000 0000 803f
00000120: 0000 803f 0000 0000 0000 0000 0000 0000
00000130: 0000 0000 0000 0000 0000 803f 0000 803f
00000140: 0000 0000 0000 0000 0000 0000 0000 0000
00000150: 0000 0000 0000 803f 0000 803f 0000 0000
00000160: 0000 0000 0000 0000 0000 0000 0000 0000
00000170: 0000 803f 0000 803f 0000 0000 0000 0000
00000180: 0000 0000 0000 0000 0000 0000 0000 803f
00000190: 0000 803f 0000 0000 0000 0000 0000 0000
000001a0: 0000 0000 0000 0000 0000 803f 0000 803f
000001b0: 0000 0000 0000 0000 0000 0000 0000 0000
000001c0: 0000 0000 0000 803f 0000 803f 0000 0000
000001d0: 0000 0000 0000 0000 0000 0000 0000 0000
000001e0: 0000 803f 0000 803f 0000 0000 0000 0000
000001f0: 0000 0000 0000 0000 0000 0000 0000 803f
00000200: 0000 803f 0000 803f 0000 803f 0000 0000
00000210: 0000 0000 0000 0000 0000 0000 0000 803f
00000220: 0000 803f 0000 803f 0000 0000 0000 0000
00000230: 0000 0000 0000 0000 0000 803f 0000 803f
00000240: 0000 803f 0000 0000 0000 0000 0000 0000
00000250: 0000 0000 0000 803f 0000 803f 0000 803f
00000260: 0000 0000 0000 0000 0000 0000 0000 0000
00000270: 0000 803f 0000 803f 0000 803f 0000 0000
00000280: 0000 0000 0000 0000 0000 0000 0000 803f
00000290: 0000 803f 0000 803f 0000 0000 0000 0000
000002a0: 0000 0000 0000 0000 0000 803f 0000 803f
000002b0: 0000 803f 0000 0000 0000 0000 0000 0000
000002c0: 0000 0000 0000 803f 0000 803f 0000 803f
000002d0: 0000 0000 0000 0000 0000 0000 0000 0000
000002e0: 0000 803f 0000 803f 0000 803f 0000 0000
000002f0: 0000 0000 0000 0000 0000 0000 0000 803f
00000300: 0000 803f 0000 803f 0000 803f 0000 803f
00000310: 0000 0000 0000 0000 0000 0000 0000 803f
00000320: 0000 803f 0000 803f 0000 803f 0000 0000
00000330: 0000 0000 0000 0000 0000 803f 0000 803f
00000340: 0000 803f 0000 803f 0000 0000 0000 0000
00000350: 0000 0000 0000 803f 0000 803f 0000 803f
00000360: 0000 803f 0000 0000 0000 0000 0000 0000
00000370: 0000 803f 0000 803f 0000 803f 0000 803f
00000380: 0000 0000 0000 0000 0000 0000 0000 803f
00000390: 0000 803f 0000 803f 0000 803f 0000 0000
000003a0: 0000 0000 0000 0000 0000 803f 0000 803f
000003b0: 0000 803f 0000 803f 0000 0000 0000 0000
000003c0: 0000 0000 0000 803f 0000 803f 0000 803f
000003d0: 0000 803f 0000 0000 0000 0000 0000 0000
000003e0: 0000 803f 0000 803f 0000 803f 0000 803f
000003f0: 0000 0000 0000 0000 0000 0000 0000 803f
1.0 0.0 0.0 0.0 0.0 0.0 0.0 1.0
0.0 0.0 0.0 0.0 0.0 0.0 1.0 0.0
0.0 0.0 0.0 0.0 0.0 1.0 0.0 0.0
0.0 0.0 0.0 0.0 1.0 0.0 0.0 0.0
0.0 0.0 0.0 1.0 0.0 0.0 0.0 0.0
0.0 0.0 1.0 0.0 0.0 0.0 0.0 0.0
0.0 1.0 0.0 0.0 0.0 0.0 0.0 0.0
1.0 0.0 0.0 0.0 0.0 0.0 0.0 1.0
1.0 1.0 0.0 0.0 0.0 0.0 0.0 1.0
1.0 0.0 0.0 0.0 0.0 0.0 1.0 1.0
0.0 0.0 0.0 0.0 0.0 1.0 1.0 0.0
0.0 0.0 0.0 0.0 1.0 1.0 0.0 0.0
0.0 0.0 0.0 1.0 1.0 0.0 0.0 0.0
0.0 0.0 1.0 1.0 0.0 0.0 0.0 0.0
0.0 1.0 1.0 0.0 0.0 0.0 0.0 0.0
1.0 1.0 0.0 0.0 0.0 0.0 0.0 1.0
1.0 1.0 1.0 0.0 0.0 0.0 0.0 1.0
1.0 1.0 0.0 0.0 0.0 0.0 1.0 1.0
1.0 0.0 0.0 0.0 0.0 1.0 1.0 1.0
0.0 0.0 0.0 0.0 1.0 1.0 1.0 0.0
0.0 0.0 0.0 1.0 1.0 1.0 0.0 0.0
0.0 0.0 1.0 1.0 1.0 0.0 0.0 0.0
0.0 1.0 1.0 1.0 0.0 0.0 0.0 0.0
1.0 1.0 1.0 0.0 0.0 0.0 0.0 1.0
1.0 1.0 1.0 1.0 0.0 0.0 0.0 1.0
1.0 1.0 1.0 0.0 0.0 0.0 1.0 1.0
1.0 1.0 0.0 0.0 0.0 1.0 1.0 1.0
1.0 0.0 0.0 0.0 1.0 1.0 1.0 1.0
0.0 0.0 0.0 1.0 1.0 1.0 1.0 0.0
0.0 0.0 1.0 1.0 1.0 1.0 0.0 0.0
0.0 1.0 1.0 1.0 1.0 0.0 0.0 0.0
1.0 1.0 1.0 1.0 0.0 0.0 0.0 1.0
